checkpoints/forecasting/deepant-epoch=33-val_loss=0.01.ckpt (torch, 908477 bytes, 21 tensors)

model.model.0.weight f4 [64, 1, 3]
0	0xbe6cf24d	-0.23139305
1	0x3df250a5	0.11831788
2	0xbd508ece	-0.05091744
3	0x3eb751db	0.35804638
4	0xbe46302c	-0.19354314
5	0x3e28e354	0.16492969
6	0xbea0bcd6	-0.3139407
7	0xbe2441c2	-0.1604071
8	0x3dae9f03	0.08526423
9	0x3db6d5ed	0.08927522
10	0x3e08cc22	0.1335912
11	0x3edee447	0.43533537
12	0x0d6f3530	7.3711583e-31
13	0x0acfe3ed	2.0019111e-32
14	0x9d24519d	-2.1747412e-21
15	0x3e043fbb	0.12914936
16	0x3ef30440	0.4746418
17	0xbe995eb6	-0.2995507
18	0xbe94f4dc	-0.29093063
19	0xbdb9d4b5	-0.09073774
20	0xbdcf41a2	-0.1011994
21	0x80009646	-5.3908e-41
22	0x80008a36	-4.9581e-41
23	0x85c2db8c	-1.8324321e-35
24	0x3d6375a7	0.055532124
25	0xbeba6894	-0.36407912
26	0x3ef1ec86	0.47250766
27	0x8000a1c5	-5.8032e-41
28	0x8000a8d8	-6.057e-41
29	0x00008a5c	4.9634e-41
30	0xbeb78d78	-0.3585012
31	0xbdc8bb1f	-0.098013155
32	0x3eb01e7e	0.34398264
33	0xbe98603f	-0.2976093
34	0xbe8a6c30	-0.27035666
35	0xbf14aa94	-0.5807278
36	0xbe2cb244	-0.16864878
37	0x3e9109fd	0.28327933
38	0x3c0e8c75	0.00870048
39	0xbe49e25f	-0.1971526
40	0xbe7a5b8a	-0.24448982
41	0xbf009ac2	-0.5023614
42	0x9103778c	-1.0370916e-28
43	0x916f1820	-1.886121e-28
44	0x9154b85b	-1.678066e-28
45	0xbe2791a9	-0.16364159
46	0xbbd99e55	-0.006641189
47	0xb9941611	-0.000282452
48	0x3d454cda	0.048168994
49	0x3e7ceb60	0.24699163
50	0xbf1ddb92	-0.6166316
51	0xba9f7d49	-0.0012168075
52	0xbc23ec2a	-0.010005036
53	0xbc321a51	-0.010870532
54	0x3ed568c4	0.41681492
55	0x3c161d02	0.009162189
56	0x3e31be06	0.17357644
57	0xbdcf16af	-0.101117484
58	0xbe8a94a2	-0.27066523
59	0x3eadd948	0.33954835
60	0xb9afeb8a	-0.0003355409
61	0xb83c2c26	-4.486381e-05
62	0x39411303	0.00018412997
63	0x3e87ab2f	0.2649779
64	0xbe85de5c	-0.2614621
65	0xbb92a55a	-0.004475278
66	0x000088c7	4.9066e-41
67	0x9780dc5d	-8.327434e-25
68	0x0ce9f153	3.6044576e-31
69	0x3eed8c0f	0.4639592
70	0xbcf77e17	-0.030211492
71	0xbf278adb	-0.6544625
72	0x3ed056c9	0.40691212
73	0x3d5e4e9c	0.054274186
74	0xbf4160e3	-0.7553846
75	0x3ee01257	0.43763992
76	0x3e98e2de	0.29860586
77	0x3edc292b	0.4300016
78	0x3d463009	0.048385654
79	0xbe2ad639	-0.16683282
80	0x3e8fba2e	0.2807173
81	0xbe5ad456	-0.21370062
82	0x3ce26026	0.027633738
83	0x3ed6669e	0.41875166
84	0x3d4889c1	0.048959497
85	0x3d6a258a	0.057164706
86	0x3e4199bf	0.18906306
87	0x3d7416af	0.059591945
88	0xbe861f96	-0.26195973
89	0x3d2fbf69	0.042907152
90	0x3e691eae	0.2276561
91	0xbe6a5472	-0.22883776
92	0xbee7de6f	-0.4528689
93	0xbd856a63	-0.06514432
94	0x3a7178fd	0.0009211449
95	0x3e686454	0.22694522
96	0x3ceb2ddb	0.028708389
97	0x3e85ab8c	0.26107442
98	0x3c266325	0.010155474
99	0xbe2d2805	-0.16909797
100	0xbe5f5678	-0.21810329
101	0xbee70165	-0.4511825
102	0xbe70b494	-0.23506385
103	0xbec50332	-0.38479
104	0xbe8c683c	-0.27423275
105	0x3ec5d00a	0.38635284
106	0x3d970244	0.07373479
107	0xbf3ffc96	-0.7499479
108	0xbe92e489	-0.28689983
109	0xbeb8c6b7	-0.36089107
110	0xbdcf2418	-0.10114306
111	0x3cefe129	0.02928217
112	0x3a092be4	0.00052326755
113	0xbf42788d	-0.75965196
114	0x000088de	4.9099e-41
115	0x10921b1f	5.762863e-29
116	0x0000892d	4.921e-41
117	0xbea87b2a	-0.32906467
118	0xb95105c5	-0.00019933943
119	0x3e3fcb5e	0.18729922
120	0xbcfa5a50	-0.030560642
121	0x3d11b5c9	0.035573754
122	0x3d42abb1	0.04752702
123	0x3e839da6	0.25706214
124	0x3ed31817	0.41229317
125	0x3e81187f	0.25214002
126	0x3e1a28f4	0.15054685
127	0xbdf0b2e1	-0.117528684
128	0x3e054840	0.13015842
129	0xbe60f6f3	-0.21969204
130	0x3e04583f	0.12924288
131	0x3e12c611	0.14333369
132	0x3d88650a	0.06659897
133	0xbe9354c9	-0.28775623
134	0xbc367387	-0.011135942
135	0x800094a9	-5.3329e-41
136	0x000089b5	4.94e-41
137	0x19b2a480	1.847121e-23
138	0x00008ad5	4.9804e-41
139	0x80008935	-4.922e-41
140	0x1f053696	2.8208998e-20
141	0x3bb1e5bb	0.0054289973
142	0xbe2a02be	-0.16602609
143	0xbc1b1ff9	-0.009468072
144	0x3cdd033c	0.026979081
145	0x3da66459	0.081246085
146	0xbd0862df	-0.033297416
147	0x3e6aefea	0.22943082
148	0xbe4d0f6f	-0.20025419
149	0x3eade3f3	0.33962974
150	0x3dcc4e0e	0.09975825
151	0x3de8722e	0.11349903
152	0x3e246606	0.16054544
153	0xbdd96a0c	-0.1061593
154	0xbe4d1476	-0.20027336
155	0xbd993c87	-0.07482248
156	0xbcb3a9e4	-0.021931596
157	0x3d98c69f	0.07459759
158	0xbed91596	-0.4239928
159	0xbd577132	-0.052598186
160	0xbe080395	-0.13282616
161	0xbed0794a	-0.40717536
162	0xbe19892e	-0.14993736
163	0x3f14c6a0	0.5811558
164	0xbf377103	-0.7165682
165	0x3e939199	0.2882202
166	0x3e01a200	0.12659454
167	0xbeb2ddfc	-0.34934986
168	0xbd490dea	-0.049085535
169	0xbea766c1	-0.32695583
170	0xbf049fad	-0.51806146
171	0xbd8af64c	-0.06785259
172	0xbe22908e	-0.15875456
173	0xbd9ca230	-0.07648122
174	0xbd6dfa1b	-0.058099847
175	0x3e101b7d	0.14072986
176	0x3e928ae7	0.286216
177	0x3e43934f	0.19099163
178	0x3e915415	0.28384462
179	0x3ea74162	0.3266707
180	0x80008a43	-4.9599e-41
181	0x95891246	-5.536269e-26
182	0xa2a48836	-4.459651e-18
183	0xa500b91d	-1.1164949e-16
184	0xa4126395	-3.1743053e-17
185	0xa3460ca6	-1.073628e-17
186	0x80008b5a	-4.999e-41
187	0x00008a21	4.9551e-41
188	0x0000a920	6.067e-41
189	0x935176fa	-2.6438169e-27
190	0x930c4670	-1.7705213e-27
191	0x138125b0	3.260134e-27

model.model.0.bias f4 [64]
0	0x3daf619f	0.085635416
1	0x3ec8f81f	0.392518
2	0x3eb7844b	0.3584312
3	0xbdf1a7a7	-0.11799555
4	0x8fcdd2b9	-2.0295728e-29
5	0xbd80adfd	-0.06283186
6	0x3eadbc0c	0.3393253
7	0x9754acdd	-6.871908e-25
8	0xbd902703	-0.07038691
9	0xa518d3a4	-1.3255605e-16
10	0x3de42066	0.11138992
11	0x3d6b6087	0.057465103
12	0xbdc415e6	-0.09574489
13	0x3e092890	0.1339438
14	0x944d29f9	-1.0358133e-26
15	0x3d616e64	0.055036917
16	0x3e697af5	0.2280081
17	0xbca9ec30	-0.020742506
18	0x3e75d101	0.2400551
19	0xbd5c964b	-0.053854268
20	0xbb6505a4	-0.003494599
21	0x3bbd196a	0.005770852
22	0x94cc6d27	-2.0641789e-26
23	0x3e522f54	0.20525867
24	0x3d84ea78	0.06490034
25	0x3d6bae39	0.0575392
26	0xbe0f1f13	-0.13976698
27	0x3d1cd22e	0.03828638
28	0xbe822a12	-0.25422722
29	0x3e4d4daf	0.20049165
30	0x3ea447a9	0.32085922
31	0x3e142836	0.14468464
32	0x3e99af94	0.30016768
33	0x3df79a93	0.120900296
34	0x3ee13b95	0.4399077
35	0x3d8c2666	0.068432614
36	0x3e81e4e5	0.25369945
37	0x3ed604ff	0.41800687
38	0xa09e867c	-2.6855235e-19
39	0x3df386a2	0.118909135
40	0xbd63c706	-0.055609725
41	0x3ed9056e	0.42386955
42	0x3ec45495	0.3834578
43	0x3bf604dc	0.0075079035
44	0x3ea7c0a5	0.32764164
45	0x9d19e588	-2.0368046e-21
46	0xa0a138a5	-2.7311945e-19
47	0x3eb1baf2	0.3471294
48	0xbd7a0d82	-0.06104804
49	0x3ecb212c	0.39673746
50	0xbb898128	-0.004196305
51	0x3cbbe3e3	0.022935813
52	0x3ea06dd4	0.31333792
53	0x3e59ea75	0.21280845
54	0x3e29262c	0.16518468
55	0x3aebf957	0.0018003386
56	0x3ed148c2	0.40875822
57	0x3ea5346f	0.32266566
58	0xbdc9d61c	-0.09855291
59	0xbc757575	-0.014981617
60	0x800089b0	-4.9393e-41
61	0xa48d07d9	-6.11623e-17
62	0x944acacb	-1.0238388e-26
63	0x9507f17f	-2.745354e-26

model.model.3.weight f4 [128, 64, 1]
0	0x36c129e4	5.756725e-06
1	0xbc21c482	-0.009873511
2	0xba546036	-0.0008101495
3	0x871c0c9e	-1.1739843e-34
4	0x80008988	-4.9337e-41
5	0x8df3bcfb	-1.5021527e-30
6	0xbbfc38c4	-0.0076971967
7	0x800090f9	-5.2006e-41
8	0x1875a5a3	3.1749133e-24
9	0x0000ae65	6.2561e-41
10	0x34293a8e	1.5760654e-07
11	0x2125c773	5.6168143e-19
12	0x00008960	4.9281e-41
13	0xb805191d	-3.173306e-05
14	0x800200e3	-1.83989e-40
15	0x369d469f	4.687186e-06
16	0x3a86fbaa	0.001029839
17	0x80008b4c	-4.997e-41
18	0xba280319	-0.0006409153
19	0x8000895e	-4.9278e-41
20	0x80008ca0	-5.0447e-41
21	0x80008c8b	-5.0417e-41
22	0x00008c10	5.0245e-41
23	0xb9cc4de5	-0.00038967948
24	0x80008b34	-4.9937e-41
25	0xb5d97879	-1.6202822e-06
26	0x80008a36	-4.9581e-41
27	0xa2331237	-2.4268666e-18
28	0x00008c01	5.0224e-41
29	0x38013a35	3.0810206e-05
30	0xbb193bef	-0.002338167
31	0x3860aff4	5.356963e-05
32	0xb992c45b	-0.00027993586
33	0xb5f06479	-1.7910635e-06
34	0x3a4b64cf	0.0007758857
35	0x0f8ae2aa	1.3695158e-29
36	0x3b00f53d	0.0019677423
37	0x3bc7dede	0.006099566
38	0x00008938	4.9225e-41
39	0xb30e5f77	-3.3148776e-08
40	0x00008a5b	4.9633e-41
41	0xbc2a30ce	-0.0103876125
42	0xba2d582e	-0.0006612566
43	0x9fb0480e	-7.4658104e-20
44	0x3c2ac418	0.010422729
45	0x0000ab10	6.1366e-41
46	0x00008be2	5.018e-41
47	0x3c021b38	0.00794106
48	0x00009347	5.2833e-41
49	0xbc1216b6	-0.0089165475
50	0xb0d25261	-1.5302924e-09
51	0x00008a3c	4.9589e-41
52	0x3a9b58c3	0.0011852015
53	0x39544f1a	0.00020247363
54	0x38f3b4c5	0.00011620814
55	0x00008e7f	5.1118e-41
56	0xbb508793	-0.003181909
57	0x3c1a64fe	0.0094234925
58	0x0b804d07	4.9419704e-32
59	0x2713911c	2.0479012e-15
60	0x800089f9	-4.9495e-41
61	0x00008b5b	4.9991e-41
62	0x8001d48f	-1.68087e-40
63	0x8000554d	-3.06e-41
64	0x3c8aeafc	0.016957752
65	0x3d763102	0.06010533
66	0xbd9cf9ce	-0.07664834
67	0x3c71b258	0.014751993
68	0x8f645453	-1.1257508e-29
69	0x3c8d6c4f	0.01726356
70	0x3cc3d82f	0.023906795
71	0x00008f30	5.1366e-41
72	0x3e9003b4	0.28127825
73	0x00008be5	5.0185e-41
74	0xbdc0f1c0	-0.0942111
75	0x3cfdce31	0.030982109
76	0xbd4cfd8b	-0.050046485
77	0xbc6bebc7	-0.014399475
78	0x914c9357	-1.6138165e-28
79	0xbd58e0e5	-0.05294885
80	0x3e5c0b3e	0.21488664
81	0xbc5564eb	-0.013024549
82	0x3cbce967	0.023060514
83	0x3e892d7d	0.26792517
84	0x39e366be	0.00043373363
85	0x3c17f3b9	0.009274417
86	0x000048bf	2.6096e-41
87	0x3e339cec	0.1754033
88	0x3ed1b21c	0.409562
89	0xbbd15bb5	-0.006389106
90	0x3db27b02	0.08714868
91	0xbdd0dcb5	-0.101983465
92	0x3c877953	0.016537344
93	0x3d92ad7d	0.071619965
94	0x3e151d21	0.14561893
95	0xbd772a5f	-0.060343143
96	0x3bb0c2b6	0.005394305
97	0x3e0e6b0b	0.13908021
98	0x3d851835	0.06498758
99	0x3eb2e33a	0.34938985
100	0xbda58715	-0.080824055
101	0x3e3943c7	0.18092261
102	0x8000907e	-5.1834e-41
103	0xbdd223b2	-0.102607146
104	0xb6b0349e	-5.251334e-06
105	0xbc141502	-0.009038212
106	0xbd601c80	-0.05471468
107	0x3d3a6acd	0.04551201
108	0xbde00bd0	-0.10939753
109	0x0000ab45	6.144e-41
110	0x00008965	4.9288e-41
111	0xbd0dfceb	-0.03466503
112	0x3c9218ef	0.017834155
113	0xbd4ad35e	-0.04951798
114	0x3dc5e0a5	0.09661988
115	0xbd82b582	-0.06382276
116	0x3dcf4b84	0.10121825
117	0xbc741bf1	-0.01489924
118	0x3e4f1ac5	0.20225056
119	0x3e0617ee	0.13095066
120	0x3e17c873	0.14822559
121	0xbda2e02e	-0.07952915
122	0x3c9cf115	0.019157926
123	0x3dcdb478	0.10044187
124	0x00009246	5.2473e-41
125	0x232a8c7a	9.2454655e-18
126	0x00008944	4.9242e-41
127	0x90c03a94	-7.58209e-29
128	0xafd9116f	-3.9484457e-10
129	0xb94c1bc1	-0.00019465295
130	0xb941959e	-0.00018461651
131	0x0c51fd9c	1.6177092e-31
132	0x80009883	-5.4711e-41
133	0x8c86ac10	-2.0749525e-31
134	0xb8e21c26	-0.00010781763
135	0x8000a64f	-5.966e-41
136	0x8a985d29	-1.467211e-32
137	0x0000ac9e	6.1923e-41
138	0xac571300	-3.0563885e-12
139	0x0c647e92	1.760257e-31
140	0x8b8b0a6f	-5.355655e-32
141	0xafc3fe62	-3.5651043e-10
142	0x80008e3e	-5.1027e-41
143	0xaa9c5580	-2.7770494e-13
144	0xb6031bbc	-1.9536665e-06
145	0x80008efc	-5.1293e-41
146	0xb7a3109e	-1.9438852e-05
147	0x8a850544	-1.2809415e-32
148	0x8000980d	-5.4546e-41
149	0x8ab4c407	-1.7407107e-32
150	0x80009c6c	-5.6114e-41
151	0xb5c0d257	-1.4366332e-06
152	0x8c95fa1a	-2.310761e-31
153	0xb377990a	-5.7648357e-08
154	0x0b301802	3.3914428e-32
155	0x0f21a088	7.96883e-30
156	0x000089c0	4.9415e-41
157	0xb73c0454	-1.1206681e-05
158	0xb7d9fdb5	-2.5986557e-05
159	0xb359900e	-5.0655267e-08
160	0xb93eaad6	-0.00018183453
161	0xa9b477d9	-8.014396e-14
162	0xb922f5b9	-0.00015541063
163	0x13307f22	2.2277004e-27
164	0xb73fa6f7	-1.1423362e-05
165	0xb8a4e283	-7.8623205e-05
166	0x00009d0a	5.6335e-41
167	0xadad8eb4	-1.9731196e-11
168	0x80009df1	-5.6659e-41
169	0xb9cfccb4	-0.00039634632
170	0xb90b2fb6	-0.00013273847
171	0x8ca52495	-2.5444292e-31
172	0xb8eddf9d	-0.00011342692
173	0x800088ed	-4.912e-41
174	0x8000a5b0	-5.9437e-41
175	0xb973b263	-0.0002324074
176	0x0000aa62	6.1122e-41
177	0xb9233069	-0.00015562926
178	0xab6a8d17	-8.33293e-13
179	0x8bab1d22	-6.591064e-32
180	0xb8f5cfdd	-0.00011721228
181	0xb6a1e354	-4.8246384e-06
182	0xb36407a9	-5.3092354e-08
183	0x8a462736	-9.540728e-33
184	0xb889fa2f	-6.5792694e-05
185	0xb919ec58	-0.00014679262
186	0x0bfffd7d	9.8603834e-32
187	0xab031533	-4.656997e-13
188	0x00009ba3	5.5832e-41
189	0x80009c99	-5.6177e-41
190	0x00008dc7	5.086e-41
191	0x000093a9	5.297e-41
192	0x800059ce	-3.2216e-41
193	0xb0b67877	-1.3276481e-09
194	0xb026a589	-6.062569e-10
195	0x00009722	5.4216e-41
196	0x00009412	5.3118e-41
197	0x8000a6b0	-5.9796e-41
198	0xaebbedbb	-8.546005e-11
199	0x00008958	4.927e-41
200	0x80008a6d	-4.9658e-41
201	0x800088eb	-4.9117e-41
202	0x80040cb2	-3.71896e-40
203	0x80008d7f	-5.0759e-41
204	0x00009522	5.3499e-41
205	0x000088ee	4.9121e-41
206	0x8000979a	-5.4384e-41
207	0x000096c3	5.4083e-41
208	0x9fbd3166	-8.0126336e-20
209	0x000088c5	4.9064e-41
210	0xa9c93017	-8.9345354e-14
211	0x800089ea	-4.9474e-41
212	0x000088ee	4.9121e-41
213	0x8000911a	-5.2053e-41
214	0x80008c3a	-5.0304e-41
215	0x9fd5a8cc	-9.048826e-20
216	0x80008a86	-4.9693e-41
217	0x0a708774	1.15810556e-32
218	0x00008ed9	5.1244e-41
219	0x800089d2	-4.944e-41
220	0x800088cb	-4.9072e-41
221	0xa6ac6e61	-1.1964816e-15
222	0xa9efa52b	-1.0642384e-13
223	0x1324fd48	2.0824587e-27
224	0xaff333c2	-4.423822e-10
225	0x00008aaa	4.9743e-41
226	0xaf5e1365	-2.0197673e-10
227	0x800089cd	-4.9434e-41
228	0xa60703f1	-4.6842875e-16
229	0xae087e9d	-3.1035275e-11
230	0x80009319	-5.2769e-41
231	0x8005e935	-5.42836e-40
232	0x000088e4	4.9107e-41
233	0xb2016c1a	-7.533368e-09
234	0xafd5f0ea	-3.8915654e-10
235	0x00008c5e	5.0354e-41
236	0xaf700c86	-2.1832322e-10
237	0x00008b52	4.9979e-41
238	0x80008b92	-5.0068e-41
239	0xb11f73ee	-2.3203444e-09
240	0x00008c56	5.0343e-41
241	0xb035eaab	-6.61809e-10
242	0x000090a4	5.1887e-41
243	0x80008d10	-5.0604e-41
244	0xadd4775b	-2.4154614e-11
245	0xa35d3d0e	-1.1993363e-17
246	0x8e04f696	-1.6388983e-30
247	0x00008caa	5.0461e-41
248	0xad631e4a	-1.2910182e-11
249	0xafacd65a	-3.1438924e-10
250	0x80008ede	-5.1251e-41
251	0x00008a2d	4.9568e-41
252	0x80009d81	-5.6502e-41
253	0x80008b00	-4.9864e-41
254	0x80008c2e	-5.0287e-41
255	0x80008bd5	-5.0162e-41

model.model.3.bias f4 [128]
0	0xbbec5037	-0.007211711
1	0xbd619fd8	-0.05508408
2	0x395d2b92	0.00021092434
3	0xb7424b95	-1.1580899e-05
4	0xbdf562b2	-0.11981715
5	0xb7984571	-1.8152148e-05
6	0xbc99db29	-0.018781262
7	0xb79b6577	-1.8524688e-05
8	0xbcb2d5ce	-0.021830466
9	0x3d0858c6	0.033287786
10	0x3e04eb51	0.12980391
11	0xa0aa7d35	-2.8881975e-19
12	0xb903cf0c	-0.00012570265
13	0xb54d9f9d	-7.660072e-07
14	0x3da03d63	0.078242086
15	0x3d82c988	0.06386095
16	0xab70581d	-8.538741e-13
17	0xbd854616	-0.065075085
18	0xbde1eb7f	-0.110312454
19	0xba34022e	-0.000686678
20	0xbde5f195	-0.11227719
21	0xbc0eac80	-0.008708119
22	0x3c1b511a	0.009479785
23	0x3cc821b8	0.02443014
24	0xbbf32268	-0.007419873
25	0xbc4a40d5	-0.012344559
26	0xbe05b195	-0.13056023
27	0xbb5ac1ab	-0.0033379595
28	0xbd23fc12	-0.040035315
29	0xb80f7918	-3.4206634e-05
30	0x3c5638e6	0.013075089
31	0xbc4e2e0f	-0.012584223
32	0xbdabdfae	-0.08392273
33	0xbb037078	-0.002005605
34	0xbc207ca9	-0.009795346
35	0xbb29f53b	-0.0025933522
36	0xbc3e310d	-0.011608374
37	0x3cbf1a1f	0.023327885
38	0xbcb10a72	-0.021611426
39	0xbd02ace9	-0.03190318
40	0xbc31d2b9	-0.010853463
41	0xad7d0cdb	-1.43842395e-11
42	0x3d21f13a	0.039536692
43	0xb92194b7	-0.00015409557
44	0x3d20a6a3	0.039221417
45	0x3d6fcf09	0.058547053
46	0x3d2c4e93	0.04206712
47	0x3d1f3031	0.03886432
48	0xbc23c971	-0.009996758
49	0xac798141	-3.5456779e-12
50	0xb9a4c85c	-0.00031429797
51	0x3d151832	0.036400028
52	0x3d37cc1e	0.044872396
53	0x3d39a1ca	0.04532031
54	0xbcccbb3d	-0.024991626
55	0xb135fe9e	-2.64837e-09
56	0x3d7da85c	0.061928138
57	0xbcd2b554	-0.02572123
58	0xbddb40fd	-0.10705755
59	0xbc0f5843	-0.008749071
60	0xbcbb37ae	-0.022853699
61	0x3d7c46c0	0.06159091
62	0xbb02cf01	-0.001995981
63	0xbc367a28	-0.011137523
64	0x3d8b2ec4	0.06796029
65	0x3c84022b	0.016114315
66	0xb809e314	-3.287483e-05
67	0x9fe72f4b	-9.7910545e-20
68	0x3cc3071e	0.023807105
69	0x3cc3e186	0.023911249
70	0x397ce2ff	0.00024117155
71	0xb926b429	-0.00015898109
72	0xbbdb28c4	-0.0066882093
73	0x3d42b440	0.04753518
74	0xbd177599	-0.036977384
75	0xbd01a64d	-0.031652737
76	0x3c6adb86	0.014334565
77	0xbb6be16a	-0.0035992512
78	0x3cc1d613	0.023661649
79	0xbafc06ec	-0.0019228137
80	0xa0d7b2a9	-3.6540644e-19
81	0x3cf01031	0.029304596
82	0xba2312c2	-0.00062207517
83	0xbce3acc4	-0.027792342
84	0xbbc5b477	-0.006033476
85	0xb2d56acd	-2.4845031e-08
86	0xbd67b7f7	-0.056571927
87	0xbd4f96df	-0.05068099
88	0xbc434167	-0.011917449
89	0x3d414535	0.04718514
90	0x3d69c0ad	0.057068516
91	0x3d169c0a	0.036769904
92	0xb3997108	-7.145178e-08
93	0xbb7bf6c3	-0.0038446642
94	0xbbdcc95d	-0.0067378716
95	0xbc641397	-0.013920686
96	0x3c463a9e	0.012098936
97	0xa1e10a90	-1.5249389e-18
98	0x3d76ea36	0.060281955
99	0xbdd0bcb8	-0.10192245
100	0xbca4933d	-0.02008974
101	0x3d4b736b	0.049670618
102	0xb122b7d7	-2.3678604e-09
103	0xbdfeefcd	-0.12448082
104	0x3cad20b2	0.021133754
105	0xa60a79c8	-4.804341e-16
106	0x3d7f2316	0.06228932
107	0x99b710cf	-1.8928545e-23
108	0xba4abde1	-0.00077339826
109	0x3d4770ad	0.04869144
110	0xb9edb411	-0.00045338323
111	0xbcc18385	-0.023622284
112	0xb4d2cddb	-3.9265328e-07
113	0x3ceac09f	0.028656302
114	0xbd16f38f	-0.03685337
115	0x3d7a219a	0.0610672
116	0xbbf8ae93	-0.0075891702
117	0xb65ff091	-3.3369618e-06
118	0xbca48320	-0.020082057
119	0x84a913bc	-3.9749832e-36
120	0xb6ca12a6	-6.02224e-06
121	0x9f4b8b71	-4.3102265e-20
122	0xbbda9eae	-0.006671748
123	0xb7c936bf	-2.398656e-05
124	0xbc1f1aa3	-0.0097109405
125	0xb4a270d7	-3.0256953e-07
126	0xb9734869	-0.00023201261
127	0xa6c697c9	-1.3780151e-15

model.model.7.weight f4 [256, 256]
0	0x800088e8	-4.9113e-41
1	0x000089d3	4.9442e-41
2	0x000088cf	4.9078e-41
3	0x00008902	4.9149e-41
4	0x80009188	-5.2207e-41
5	0x80008d46	-5.068e-41
6	0x80008934	-4.9219e-41
7	0x80009866	-5.467e-41
8	0x00008c04	5.0228e-41
9	0x000088fb	4.914e-41
10	0x00008f6c	5.145e-41
11	0x80008c85	-5.0409e-41
12	0x00008961	4.9282e-41
13	0x00008a22	4.9553e-41
14	0x8000adb1	-6.2309e-41
15	0x00008bce	5.0152e-41
16	0x00008999	4.9361e-41
17	0x0000890d	4.9165e-41
18	0xa8a52858	-1.8336176e-14
19	0xa8390b00	-1.0271948e-14
20	0x0000896d	4.9299e-41
21	0x0000891c	4.9186e-41
22	0x000270af	2.24094e-40
23	0x00009af3	5.5585e-41
24	0x000090a0	5.1882e-41
25	0x800090fb	-5.2009e-41
26	0x00008a2d	4.9568e-41
27	0x800088d3	-4.9083e-41
28	0x00008a83	4.9689e-41
29	0x0000897c	4.932e-41
30	0x000089ce	4.9435e-41
31	0x800088ec	-4.9118e-41
32	0x80009a73	-5.5406e-41
33	0x800090e8	-5.1983e-41
34	0x800089ae	-4.939e-41
35	0x000089e3	4.9464e-41
36	0x000098a9	5.4764e-41
37	0x800089a4	-4.9376e-41
38	0x00008c1d	5.0263e-41
39	0x80008d15	-5.061e-41
40	0x93d0dcdd	-5.272437e-27
41	0x14ca0aff	2.0401125e-26
42	0x00008b96	5.0074e-41
43	0x800089c0	-4.9415e-41
44	0x00008a31	4.9574e-41
45	0x00008954	4.9264e-41
46	0x800088c4	-4.9062e-41
47	0x80008a0b	-4.952e-41
48	0x8000895b	-4.9274e-41
49	0x80008942	-4.9239e-41
50	0x800089c2	-4.9418e-41
51	0x0000ad20	6.2106e-41
52	0x0027bb55	3.648786e-39
53	0x00afe0b8	1.6151826e-38
54	0x0003210f	2.87366e-40
55	0x0000a84c	6.0374e-41
56	0x800088f8	-4.9135e-41
57	0x800089ce	-4.9435e-41
58	0x00009f72	5.7198e-41
59	0x00008d60	5.0716e-41
60	0x80008a2d	-4.9568e-41
61	0x80008941	-4.9237e-41
62	0x800089c0	-4.9415e-41
63	0x00008ba8	5.0099e-41
64	0x800093c3	-5.3007e-41
65	0x000089e2	4.9463e-41
66	0x80008905	-4.9153e-41
67	0x0000917e	5.2193e-41
68	0x800096e7	-5.4134e-41
69	0x00014d38	1.19536e-40
70	0x1aebc3cd	9.7510055e-23
71	0x99ca5c9e	-2.0923718e-23
72	0x80008923	-4.9195e-41
73	0x80008976	-4.9312e-41
74	0x9596451e	-6.0693565e-26
75	0x9729d980	-5.488137e-25
76	0x80008f25	-5.135e-41
77	0x00008929	4.9204e-41
78	0x91d68b42	-3.384907e-28
79	0x133dde82	2.3964859e-27
80	0x80008a50	-4.9617e-41
81	0x80008b10	-4.9886e-41
82	0x800091c3	-5.229e-41
83	0x000092af	5.262e-41
84	0x80008a2c	-4.9567e-41
85	0x80008922	-4.9194e-41
86	0x8000917b	-5.2189e-41
87	0x80008c71	-5.0381e-41
88	0x000088fc	4.9141e-41
89	0x00008adb	4.9812e-41
90	0x00008989	4.9338e-41
91	0x000089dd	4.9456e-41
92	0x80008a34	-4.9578e-41
93	0x80008a05	-4.9512e-41
94	0x1037691c	3.617136e-29
95	0x10ca245c	7.973097e-29
96	0x0000a6d3	5.9845e-41
97	0x000096ae	5.4054e-41
98	0x8000a726	-5.9962e-41
99	0x00008c9f	5.0445e-41
100	0x80008ad9	-4.9809e-41
101	0x80008a4d	-4.9613e-41
102	0xa0cb2c39	-3.4418802e-19
103	0xa15d9734	-7.507783e-19
104	0x8512eb77	-6.908135e-36
105	0x05f28247	2.2805427e-35
106	0x80008a1d	-4.9546e-41
107	0x80006540	-3.6322e-41
108	0x80008959	-4.9271e-41
109	0x000089fc	4.95e-41
110	0x00008e15	5.097e-41
111	0x000088c3	4.9061e-41
112	0x00008960	4.9281e-41
113	0x800089d5	-4.9445e-41
114	0x00008f78	5.1467e-41
115	0x80028a6b	-2.33326e-40
116	0x80008965	-4.9288e-41
117	0x80008a0b	-4.952e-41
118	0x00008b65	5.0005e-41
119	0x800098ce	-5.4816e-41
120	0x8000944b	-5.3197e-41
121	0x000091ec	5.2347e-41
122	0x0000893e	4.9233e-41
123	0x80008996	-4.9357e-41
124	0x00008958	4.927e-41
125	0x80009709	-5.4181e-41
126	0x8000925a	-5.2501e-41
127	0x80008b45	-4.996e-41
128	0x80008950	-4.9258e-41
129	0x80008988	-4.9337e-41
130	0x99478f07	-1.0316943e-23
131	0x9959e546	-1.12649385e-23
132	0x800093c2	-5.3006e-41
133	0x00008bc7	5.0143e-41
134	0x80008f5c	-5.1428e-41
135	0x80009235	-5.2449e-41
136	0x80008931	-4.9215e-41
137	0x800089fc	-4.95e-41
138	0x80008958	-4.927e-41
139	0x000089d5	4.9445e-41
140	0x8000a168	-5.7902e-41
141	0x00008a0d	4.9523e-41
142	0x80008907	-4.9156e-41
143	0x8000940d	-5.311e-41
144	0x000091d9	5.232e-41
145	0x000095dc	5.376e-41
146	0x0233fb9f	1.3223055e-37
147	0x850797ec	-6.375573e-36
148	0x00008d0b	5.0597e-41
149	0x0000899a	4.9362e-41
150	0x80008a55	-4.9624e-41
151	0x800088c7	-4.9066e-41
152	0x9c6448aa	-7.553279e-22
153	0x9d2d4bf1	-2.293562e-21
154	0x80009349	-5.2836e-41
155	0x8000932b	-5.2794e-41
156	0x000089d3	4.9442e-41
157	0x80008a3c	-4.9589e-41
158	0x8000936d	-5.2886e-41
159	0x0000a600	5.955e-41
160	0x80008962	-4.9284e-41
161	0x00009ff1	5.7376e-41
162	0x01bb7d7c	6.887301e-38
163	0x022327a0	1.198672e-37
164	0x00008de4	5.0901e-41
165	0x00009087	5.1847e-41
166	0x0024c16d	3.375466e-39
167	0x84f0bd31	-5.6597474e-36
168	0x80008aeb	-4.9834e-41
169	0x80008cd8	-5.0525e-41
170	0x80008eab	-5.118e-41
171	0x80009ce2	-5.6279e-41
172	0x80008a9e	-4.9726e-41
173	0x000089dc	4.9455e-41
174	0x84fc1e40	-5.9272696e-36
175	0x089ecdce	9.557664e-34
176	0x80009624	-5.386e-41
177	0x8000a9d4	-6.0923e-41
178	0x80086908	-7.72362e-40
179	0x0006f874	6.40141e-40
180	0x05adf4b0	1.6358726e-35
181	0x8471897e	-2.8392547e-36
182	0x800089aa	-4.9385e-41
183	0x800088d3	-4.9083e-41
184	0x800098b8	-5.4785e-41
185	0x800098c4	-5.4802e-41
186	0x00009196	5.2226e-41
187	0x0000a1c8	5.8036e-41
188	0x00008e83	5.1124e-41
189	0x80008eda	-5.1245e-41
190	0x80008911	-4.917e-41
191	0x800089c2	-4.9418e-41
192	0x22eccbae	6.4183582e-18
193	0x23a141f0	1.748358e-17
194	0x00006468	3.6019e-41
195	0x80008c87	-5.0412e-41
196	0x801b93fd	-2.532647e-39
197	0x017568c8	4.507457e-38
198	0x00008abc	4.9769e-41
199	0x00008ae3	4.9823e-41
200	0x0001841c	1.39227e-40
201	0x00008ca1	5.0448e-41
202	0x80086aca	-7.72993e-40
203	0x8448916e	-2.3576665e-36
204	0x00009fda	5.7344e-41
205	0x8000a86e	-6.0421e-41
206	0x80008c59	-5.0347e-41
207	0x00008ab7	4.9762e-41
208	0x80008c04	-5.0228e-41
209	0x8000894d	-4.9254e-41
210	0x0000a2dc	5.8423e-41
211	0x00008dec	5.0912e-41
212	0x8fe92cbd	-2.2992806e-29
213	0x8ff705bb	-2.4358288e-29
214	0x8000aea6	-6.2652e-41
215	0x00008fb7	5.1555e-41
216	0x80008d33	-5.0653e-41
217	0x00008bdf	5.0176e-41
218	0x9b9485f5	-2.4571114e-22
219	0x9d3ebc36	-2.5243593e-21
220	0x00008a5f	4.9638e-41
221	0x800088f2	-4.9127e-41
222	0x800089cb	-4.9431e-41
223	0x80004f19	-2.8375e-41
224	0x80008900	-4.9146e-41
225	0x80009972	-5.5046e-41
226	0x80008b20	-4.9909e-41
227	0x800088bd	-4.9052e-41
228	0x000089e3	4.9464e-41
229	0x00008977	4.9313e-41
230	0x000089f9	4.9495e-41
231	0x80008ab1	-4.9753e-41
232	0x80008ff5	-5.1642e-41
233	0x8000a99c	-6.0844e-41
234	0x8000a4b7	-5.9089e-41
235	0x0000a5bf	5.9458e-41
236	0x0000ac5d	6.1832e-41
237	0x800092bc	-5.2638e-41
238	0x0000a404	5.8838e-41
239	0x80009996	-5.5096e-41
240	0x0000a106	5.7764e-41
241	0x80008d4d	-5.0689e-41
242	0x00008761	4.8565e-41
243	0x0000aefd	6.2774e-41
244	0x00008a18	4.9539e-41
245	0x00008c12	5.0248e-41
246	0x00008f89	5.1491e-41
247	0x80008ba7	-5.0098e-41
248	0x80008f79	-5.1468e-41
249	0x00008a00	4.9505e-41
250	0x00009a6f	5.54e-41
251	0x80008a76	-4.967e-41
252	0x00009d62	5.6458e-41
253	0x00008a2c	4.9567e-41
254	0x000092d1	5.2668e-41
255	0x000097f6	5.4513e-41

model.model.7.bias f4 [256]
0	0xb6905b2b	-4.3021478e-06
1	0xbd0b2efc	-0.033980355
2	0xaf7ab908	-2.2803104e-10
3	0xbd0b08dd	-0.033944
4	0x3be5e228	0.0070154853
5	0xbc9f0d66	-0.019415569
6	0xb7ccfe04	-2.443698e-05
7	0xb8647f21	-5.4477834e-05
8	0xb9f66147	-0.00046993254
9	0xbcc8762b	-0.02447041
10	0xb8077e41	-3.230409e-05
11	0xba88fb48	-0.0010450864
12	0xbc24f746	-0.01006872
13	0xbcf28e66	-0.029608916
14	0xbd62f857	-0.055412617
15	0xa3aa31bd	-1.8452502e-17
16	0xbc8114c6	-0.015756976
17	0xbc9c076e	-0.019046512
18	0x3c60941b	0.013707186
19	0x3d58b8f6	0.052910767
20	0x3c06321f	0.008190661
21	0xbd06bafb	-0.032893162
22	0xbc41dc33	-0.011832285
23	0xbbe315eb	-0.006930103
24	0xa60b6417	-4.836096e-16
25	0x3d521794	0.051292017
26	0xbc54d3c4	-0.012989942
27	0xb55247ff	-7.8335864e-07
28	0xbc661ed4	-0.014045436
29	0xb6c7953c	-5.9480353e-06
30	0xbc931688	-0.01795508
31	0xbb896cf1	-0.004193895
32	0xbc9f4c81	-0.01944566
33	0xba0dc193	-0.0005407568
34	0xbb640254	-0.0034791427
35	0xbc461e55	-0.012092193
36	0xb94f0bea	-0.00019745497
37	0xbb273d85	-0.0025518846
38	0x3c947353	0.018121397
39	0xbc5b0c0f	-0.013369574
40	0xbd60f39b	-0.05491982
41	0xbc1454ea	-0.009053448
42	0xb9f5898e	-0.00046832528
43	0xb6e65bb6	-6.8652107e-06
44	0xb99f8821	-0.00030428267
45	0xbc9842db	-0.018586567
46	0xbbf48d64	-0.007463144
47	0x3a05c866	0.0005103409
48	0x3b8af69a	0.004240823
49	0xbc8fbc41	-0.017545821
50	0x3d5ac026	0.053405903
51	0xb6aa642b	-5.078056e-06
52	0xbcc23897	-0.023708625
53	0x3c8d5f60	0.017257392
54	0xbb86e388	-0.0041164793
55	0xbd90c8b2	-0.070695296
56	0x3a8d9ed4	0.0010804781
57	0x3d3f968b	0.04677443
58	0xbbb242d7	-0.005440097
59	0x3d308de4	0.043104067
60	0xbc6d6349	-0.014489003
61	0xbc823b95	-0.015897552
62	0xb067b706	-8.42974e-10
63	0x3d6a0d82	0.05714179
64	0xb4dd0d5e	-4.1174184e-07
65	0xbb7ba0c7	-0.0038395391
66	0x99d9dc69	-2.2526297e-23
67	0xb839af45	-4.427067e-05
68	0xbc898386	-0.016786348
69	0xb4976d57	-2.8205497e-07
70	0xb93f35f2	-0.00018235276
71	0x3d2ec1e3	0.042665374
72	0xbb83bb50	-0.004020132
73	0xb01a8e4a	-5.622708e-10
74	0xab30349e	-6.260078e-13
75	0xb58b98f5	-1.0400823e-06
76	0xb6a186f5	-4.813885e-06
77	0x3b20232a	0.0024435022
78	0x3cadf80a	0.021236438
79	0xb7ad5e5e	-2.066715e-05
80	0x3d5b5e1a	0.05355654
81	0xb81f4c7f	-3.7979797e-05
82	0x3d02da7a	0.031946637
83	0xbca3eae0	-0.020009458
84	0xb11c698a	-2.276098e-09
85	0xbd4102d4	-0.047121838
86	0xbc149131	-0.009067819
87	0xb38351b7	-6.115027e-08
88	0xb97e51fa	-0.00024253866
89	0xb9c96f3d	-0.00038420586
90	0xb880cbbd	-6.141465e-05
91	0xa58579c0	-2.3154323e-16
92	0xbc1a1a5d	-0.0094057
93	0xb708a937	-8.14563e-06
94	0xba0bc4bb	-0.00053317443
95	0xbc635ae5	-0.013876651
96	0xbbd19322	-0.0063957134
97	0xbc3e7007	-0.011623389
98	0xb81f8bd4	-3.803878e-05
99	0xb84caf25	-4.8800506e-05
100	0xbb2272a7	-0.0024787576
101	0xb88a7e28	-6.603851e-05
102	0xb9e4e580	-0.0004365854
103	0x3c2c2dae	0.010508938
104	0xac55ce1e	-3.0383539e-12
105	0xae569509	-4.8790336e-11
106	0xbafcb942	-0.0019281285
107	0xb99f1011	-0.00030338814
108	0xbd447847	-0.047966268
109	0xb71331f0	-8.77351e-06
110	0xbb19f786	-0.0023493483
111	0xbb76bf83	-0.003765077
112	0xbb7dfcda	-0.0038755448
113	0xa6f4d3b9	-1.6988289e-15
114	0xbb87bdfa	-0.00414252
115	0xbcd19dab	-0.025587877
116	0xbd270e51	-0.040785138
117	0xbc03467f	-0.008012413
118	0xb5824876	-9.706844e-07
119	0xbae81d51	-0.0017708932
120	0x3d57b82e	0.05266588
121	0xbbe03c28	-0.0068431087
122	0x399100b8	0.0002765709
123	0xbd0bdfbd	-0.03414892
124	0x3c6ddc72	0.01451789
125	0xbc1c01fe	-0.009521959
126	0xbaafc63c	-0.0013410519
127	0x3d83a2de	0.06427549
128	0xb8a617cf	-7.9199315e-05
129	0xbbd9517c	-0.006632028
130	0xbcf4cc52	-0.029882584
131	0xb68015ed	-3.8172498e-06
132	0xbad7af0d	-0.0016455367
133	0x3d1b01cd	0.037843514
134	0xbcd25e25	-0.025679657
135	0xbcb07e7e	-0.021544691
136	0xab0a8971	-4.9218187e-13
137	0xbc7f52a4	-0.015583668
138	0xb0a8bf05	-1.22779e-09
139	0xb9eb5766	-0.0004488781
140	0x3d0d906d	0.034561563
141	0x9caddcb4	-1.150523e-21
142	0xbb694d84	-0.0035599181
143	0xbc049e6f	-0.008094414
144	0x3d2a651c	0.04160033
145	0x3d7c7515	0.061635096
146	0xbbe1e29b	-0.0068934686
147	0xb4fdc1dd	-4.7265976e-07
148	0xbb0a4595	-0.0021098603
149	0xbc8f5d88	-0.017500654
150	0x3c8614b9	0.016367303
151	0xbbc15832	-0.0059004063
152	0xbce968d3	-0.028492367
153	0x9580274f	-5.1760806e-26
154	0xb4a65a85	-3.098577e-07
155	0x3ca7c3a8	0.020479038
156	0xbc85db68	-0.016339973
157	0xb3f07359	-1.11968525e-07
158	0xbcbd2380	-0.023088217
159	0xba1a40ad	-0.0005884271
160	0xbc67375b	-0.014112319
161	0xb875a72a	-5.8568236e-05
162	0xace4adce	-6.499446e-12
163	0x3b48b0e8	0.0030623022
164	0x3cc46ef0	0.02397868
165	0xbbafb1c7	-0.005361769
166	0x3d328ea5	0.043593068
167	0x3c15ac0c	0.009135257
168	0x3c070e83	0.008243206
169	0xb880d3d2	-6.14297e-05
170	0x3d6b863e	0.05750107
171	0xb1809c4c	-3.743059e-09
172	0xabc2faec	-1.3854174e-12
173	0xba1ac586	-0.0005904067
174	0xbc84140c	-0.01612284
175	0xbd0746b9	-0.03302643
176	0x3d46d89f	0.04854643
177	0xbcaff2d6	-0.021478098
178	0x3beb07f6	0.00717258
179	0x3c231d7a	0.009955758
180	0xbc89cbbc	-0.016820781
181	0xba95a4c0	-0.0011416897
182	0x3bf45c93	0.007457325
183	0x3be34129	0.006935258
184	0xbb9848ea	-0.004647364
185	0xb872a130	-5.7847414e-05
186	0x9380f832	-3.2556482e-27
187	0xbc05d0c5	-0.00816745
188	0xb098788b	-1.1093716e-09
189	0xba8d761c	-0.0010792646
190	0xbab9a014	-0.0014162087
191	0x3d5be93f	0.053689238
192	0xb4b1c09d	-3.3108964e-07
193	0xba238ec9	-0.0006239233
194	0xba452c21	-0.00075215293
195	0xbc80ed01	-0.015738012
196	0xb3e53224	-1.0672764e-07
197	0xbb5d3d96	-0.0033758632
198	0xbd0f377f	-0.034965035
199	0xba98dcaf	-0.0011662449
200	0xbbd7e852	-0.006588974
201	0xb4c35e3f	-3.6390153e-07
202	0x3a300ea3	0.0006716048
203	0xbcf006d3	-0.029300129
204	0xbcf59be2	-0.029981557
205	0x3cfa777f	0.030574558
206	0xbb1e1259	-0.0024119823
207	0xb636a9f6	-2.7219044e-06
208	0xb710198f	-8.58902e-06
209	0xbcc8c2c1	-0.024506928
210	0xbaef6f2f	-0.0018267388
211	0xb62a8877	-2.5411407e-06
212	0xbc1be56b	-0.009515147
213	0xb8dd9d9e	-0.0001056746
214	0xae399063	-4.219237e-11
215	0xba010254	-0.00049213064
216	0x3c93655b	0.017992666
217	0x3c821201	0.015877726
218	0xbc223dd8	-0.00990244
219	0xbc8e3fe1	-0.017364444
220	0xbb05073a	-0.0020298497
221	0x3ce347a8	0.02774413
222	0xbcce4d25	-0.02518327
223	0xa771f409	-3.357776e-15
224	0xbc519902	-0.012792828
225	0xbd0613ac	-0.032733604
226	0xb73c70c4	-1.12319285e-05
227	0xbd43c440	-0.04779458
228	0xbd2874f1	-0.04112715
229	0x3ce6e590	0.028185636
230	0xbb5e803d	-0.0033950948
231	0xbab9b4b5	-0.0014168235
232	0xbb199c61	-0.0023439156
233	0xbb6979e3	-0.0035625629
234	0xbc3c32ef	-0.011486753
235	0xb6b41021	-5.3662957e-06
236	0x3c9c0757	0.019046469
237	0xb79dc24b	-1.8806333e-05
238	0xba5bec9a	-0.00083894434
239	0x9d84d770	-3.5162866e-21
240	0xb8ab5d75	-8.171323e-05
241	0x3bc9aeb8	0.0061548613
242	0xbbd99698	-0.0066402666
243	0xb648af08	-2.9904204e-06
244	0x3d200f37	0.03907701
245	0xbb3fa749	-0.0029243997
246	0x3d351598	0.044210047
247	0xbb99dde6	-0.004695642
248	0xbab87d9d	-0.0014075522
249	0xbcc53bfe	-0.024076458
250	0x3c02f062	0.007991882
251	0x3ca55448	0.02018179
252	0x3d4013b2	0.046893783
253	0xbb235d3b	-0.0024927396
254	0xbc1e2879	-0.009653204
255	0xbc89daa4	-0.016827889

model.model.10.weight f4 [1, 256]
0	0xbb769abd	-0.0037628852
1	0xbc353dc9	-0.011062094
2	0xb6b13c24	-5.2820124e-06
3	0x3b3f89d1	0.0029226432
4	0xbc994c05	-0.018713007
5	0xbcf00473	-0.029298997
6	0xb91a40b4	-0.00014710688
7	0x38921097	6.9649126e-05
8	0x3abc1962	0.0014350826
9	0x3d00dd8b	0.03146128
10	0x3ab6ebee	0.001395581
11	0x37b34e7b	2.1375008e-05
12	0x3a956613	0.0011398218
13	0xbd2cad97	-0.042157736
14	0x3dc09ec0	0.09405279
15	0xa2039f3b	-1.7838106e-18
16	0x3c8e0994	0.017338552
17	0xb86d970a	-5.664587e-05
18	0xbabc7b87	-0.0014380076
19	0x3d61ea38	0.05515501
20	0x3a15a08f	0.0005707824
21	0x3d7a2669	0.061071787
22	0x3d5a9b91	0.053371016
23	0xbc01e603	-0.007928374
24	0x3a41453d	0.0007372683
25	0x3d8ac0cc	0.06775054
26	0xbb8cf3e7	-0.0043015364
27	0x373f688c	1.1408829e-05
28	0x3c25f118	0.010128282
29	0x2bc0e553	1.3706071e-12
30	0x3e11d7af	0.14242433
31	0xb902d56b	-0.0001247727
32	0x3cd33364	0.02578134
33	0xb12a49b8	-2.478016e-09
34	0xbcb3264d	-0.02186885
35	0xbc504017	-0.012710593
36	0x2a15a9a6	1.3292717e-13
37	0x37493ed6	1.1995164e-05
38	0x3dbcd1a9	0.09219677
39	0x3d1c1ba0	0.038112283
40	0xbc9381c7	-0.018006219
41	0x3ac39a1c	0.0014923248
42	0xb915119f	-0.00014216312
43	0x277389b1	3.3797667e-15
44	0xbc1da181	-0.009621025
45	0xbbc04c8a	-0.005868499
46	0xbc159581	-0.009129883
47	0x3d160bf1	0.036632482
48	0x3d5c805d	0.053833354
49	0x3c1ff6e0	0.009763449
50	0x3d3f3784	0.046683803
51	0xb8891473	-6.536478e-05
52	0xbc40eabe	-0.011774717
53	0xbcbffcf8	-0.023436055
54	0x372f8611	1.0462028e-05
55	0xbc19e024	-0.009391818
56	0x3bf843be	0.007576435
57	0x3d5d841b	0.054081064
58	0x3323c8a0	3.8133862e-08
59	0x3d93990c	0.07206926
60	0x3d497345	0.049182195
61	0x3c55b5f3	0.013043868
62	0x391c97b5	0.00014933835
63	0x3d3ff774	0.04686685
64	0xabb7e13c	-1.3065447e-12
65	0xbbbbd6e7	-0.0057324055
66	0x2d3f322f	1.0868236e-11
67	0x3a30174b	0.0006717338
68	0xbc732412	-0.014840143
69	0x3af7a4db	0.0018893735
70	0x000088fe	4.9144e-41
71	0x3d959ebc	0.07305667
72	0x3cf12b94	0.029439725
73	0x20bb70d5	3.1753698e-19
74	0x000095b8	5.3709e-41
75	0xbb636973	-0.0034700304
76	0xba50ff0e	-0.00079725764
77	0x3c85a335	0.016313175
78	0xbc400b70	-0.011721477
79	0xbc1df29a	-0.00964036
80	0x3d996321	0.074896105
81	0x0000b6fd	6.5644e-41
82	0xbd07d393	-0.033160757
83	0x3dbc8ff2	0.09207143
84	0x3a550a81	0.00081268704
85	0x3c81f41c	0.01586347
86	0x3c3a1ab9	0.01135891
87	0xb7a333c9	-1.9455229e-05
88	0x3ba7443c	0.0051045697
89	0x39bb2d1d	0.0003570103
90	0x3b9205ca	0.0044562565
91	0xb445973a	-1.840207e-07
92	0xbccea30c	-0.025224231
93	0xbace057b	-0.0015718186
94	0x3b9a1512	0.004702219
95	0xbcadf3c8	-0.021234408
96	0x3ba616d2	0.0050686384
97	0x3d80d7c3	0.06291153
98	0x36f5c9fa	7.325082e-06
99	0x800088ee	-4.9121e-41
100	0x396c2397	0.00022519972
101	0xbbb1d448	-0.005426917
102	0xbd1746ce	-0.03693276
103	0xbce2580b	-0.027629873
104	0x800090ed	-5.199e-41
105	0x00008bd2	5.0158e-41
106	0xbce5fbc8	-0.02807416
107	0xba8b9a1d	-0.0010650788
108	0xbce6a280	-0.028153658
109	0x3a7a8dde	0.0009557883
110	0x3c953813	0.018215215
111	0xbc37e098	-0.011222981
112	0x38d32e83	0.000100699275
113	0x00008916	4.9177e-41
114	0x3bed58a2	0.007243232
115	0x3cdabb24	0.026700564
116	0x3d01fde0	0.031736255
117	0xbc2b04e9	-0.010438182
118	0x23023716	7.058979e-18
119	0x39d10dba	0.00039873814
120	0x3d475cbe	0.04867243
121	0x3c570ffc	0.01312637
122	0xbbd646a2	-0.006539182
123	0xbc11a942	-0.008890452
124	0xbd06ad95	-0.032880384
125	0xbc10cea4	-0.008838329
126	0xbbd5be5a	-0.006522936
127	0x3d8e58b7	0.06950515
128	0x3a369979	0.0006965618
129	0x3ca722d0	0.020402342
130	0x3c1efb3d	0.009703455
131	0xbb4469fe	-0.0029970403
132	0xb8338292	-4.279853e-05
133	0x3d6b84af	0.057499584
134	0xbb5adb70	-0.0033394955
135	0xbbfff05a	-0.0078106346
136	0xb7c074e2	-2.2942611e-05
137	0x3c242167	0.010017729
138	0x340686fb	1.2528828e-07
139	0x3ce6b051	0.028160246
140	0xbd09c27b	-0.033632737
141	0xaa5e1151	-1.9723569e-13
142	0x3af7574b	0.001887062
143	0xbd0250a4	-0.031815186
144	0x3d972c2a	0.073814705
145	0x3d898bad	0.06716094
146	0xbb2dd792	-0.0026526195
147	0xb56b915b	-8.775584e-07
148	0xbb60d786	-0.003430815
149	0x3c56f07c	0.013118859
150	0xbc1fd8db	-0.009756292
151	0x3d84805b	0.06469794
152	0x3dc37d07	0.095453314
153	0x80008aa6	-4.9738e-41
154	0x24aaa5c7	7.4006585e-17
155	0xbd498fd8	-0.049209446
156	0x3ba6ef35	0.0050944337
157	0xb40ed46f	-1.3302063e-07
158	0xbd14d12d	-0.036332298
159	0x3b74e02f	0.003736507
160	0xbd0d8cc4	-0.034558073
161	0x3758e561	1.292801e-05
162	0x00008966	4.9289e-41
163	0x3dc5fbe4	0.09667185
164	0x3d4c1228	0.049822003
165	0x3bbd50b6	0.0057774438
166	0xbcae29c0	-0.021260142
167	0x3d9e9f1d	0.07745192
168	0xbc4be317	-0.012444279
169	0x394818af	0.00019082682
170	0x3db25656	0.087078735
171	0x00008b48	4.9965e-41
172	0x3afd486f	0.0019323955
173	0x3bc6254f	0.006046928
174	0x3adbc110	0.0016765911
175	0xbc8859e8	-0.016644433
176	0x3d83f5e0	0.06443381
177	0xbb9a122d	-0.0047018738
178	0x3d8ca1b4	0.0686678
179	0x3d0c6a95	0.034281332
180	0x3db0a863	0.08625867
181	0xbb913987	-0.0044319066
182	0x3dcbac1b	0.09944936
183	0x3d4e877a	0.05042217
184	0x3beac56e	0.0071646487
185	0x3b36fe31	0.0027922506
186	0x1274ac37	7.7205096e-28
187	0x3b7fa0c1	0.003900573
188	0x35df95d9	1.6658406e-06
189	0x3bca8923	0.0061808988
190	0x3c73deb0	0.014884636
191	0x3d9947ea	0.0748442
192	0x800089ae	-4.939e-41
193	0xb969fb64	-0.00022314262
194	0x3c0f76e9	0.008756378
195	0x3d4e6bcb	0.050395768
196	0x3ab65728	0.0013911473
197	0x3d19a265	0.037508387
198	0x3d0b9bbb	0.034084063
199	0xbbff3996	-0.007788847
200	0x39bf67f6	0.00036507816
201	0xb5cafb21	-1.5123261e-06
202	0xbb887193	-0.0041639297
203	0x3d51384c	0.05107908
204	0x3d904403	0.07044222
205	0x3dc0914d	0.09402714
206	0xbd2330af	-0.03984135
207	0xb742241e	-1.157171e-05
208	0xb92f0107	-0.00016689683
209	0x3d1bc02b	0.038025063
210	0xb88c08ef	-6.677384e-05
211	0xa7d28d96	-5.8440217e-15
212	0x396c13a1	0.00022514026
213	0x3bfdaf6a	0.0077418583
214	0x29e47662	1.014577e-13
215	0xbc3d5b9f	-0.011557489
216	0xba29f837	-0.0006483825
217	0xbcb11218	-0.021615073
218	0xbc68ec50	-0.014216498
219	0x3d85960f	0.06522762
220	0xbc17fb96	-0.009276291
221	0xbd271893	-0.04079492
222	0x3d043172	0.032273717
223	0xae3223d0	-4.0504322e-11
224	0xbd403907	-0.046929386
225	0xbc3886e4	-0.011262629
226	0x3913f9f1	0.00014112123
227	0xbd23bef8	-0.039977044
228	0x3db455aa	0.088054016
229	0x3daade44	0.08343175
230	0x3ca91205	0.020638475
231	0x3b246398	0.0025083777
232	0x3ccb2d08	0.024801746
233	0x3d6fb584	0.058522716
234	0x3d7cb9ef	0.061700758
235	0x38b5610d	8.64883e-05
236	0xbcfa684c	-0.03056731
237	0xa52cd9f8	-1.4992473e-16
238	0xbc5e0757	-0.013551555
239	0x37f6f7c0	2.9440853e-05
240	0x3b1e5bc4	0.0024163583
241	0xbc277327	-0.010220326
242	0xbb93d2af	-0.0045111994
243	0xadab2c1d	-1.946004e-11
244	0x3d9502ea	0.072759464
245	0x3af3b5c9	0.0018593605
246	0x3d34e1f5	0.044160802
247	0x3d1f099e	0.03882753
248	0x3ae73528	0.0017639743
249	0x3bfc6552	0.007702508
250	0x3c1ea0b6	0.009681871
251	0xbd3dd7d6	-0.046348415
252	0x3d5a1b62	0.05324877
253	0x000088ed	4.912e-41
254	0x3bb74a56	0.0055935783
255	0xbca9a89e	-0.020710286

exp_avg f4 [64, 1, 3]
0	0xb98ca469	-0.00026825376
1	0xb9a2479d	-0.00030952404
2	0xb9792bb9	-0.00023762778
3	0x39e20b97	0.00043114714
4	0x3a0a4caf	0.0005275709
5	0x39c5ca68	0.00037725572
6	0xb887411b	-6.4494285e-05
7	0xb7b2c738	-2.1312022e-05
8	0xb83fe45a	-4.5750618e-05
9	0xb937c38e	-0.0001752509
10	0xb89d601a	-7.504244e-05
11	0x3794c8ff	1.7736571e-05
12	0x0661f0d4	4.249473e-35
13	0x041b2b3e	1.8240018e-36
14	0x96d5a9a0	-3.4519054e-25
15	0xb9192f20	-0.00014608772
16	0xb96a8b24	-0.00022367813
17	0xb937ea52	-0.00017539531
18	0xb95bee6b	-0.00020974285
19	0xb970e38a	-0.00022972948
20	0xb97220dc	-0.0002309116
21	0x80000000	-0.0
22	0x80000000	-0.0
23	0x80107eb2	-1.514818e-39
24	0xba03aaa4	-0.0005022681
25	0xba0615b8	-0.00051149307
26	0xb98b1774	-0.0002652962
27	0x80000000	-0.0
28	0x80000000	-0.0
29	0x00000000	0.0
30	0x398ee864	0.00027257495
31	0x39b811a4	0.00035108358
32	0x394825b5	0.00019087533
33	0x384c1963	4.8661033e-05
34	0x38082f69	3.246908e-05
35	0xb8b13796	-8.4503714e-05
36	0xb80437eb	-3.152333e-05
37	0xb8280b54	-4.006487e-05
38	0xb72ae2e5	-1.0185618e-05
39	0xb929ed1b	-0.00016205425
40	0xb901c0ca	-0.00012374218
41	0xb93ff45a	-0.00018306207
42	0x0b634f85	4.3778434e-32
43	0x0b6a5eee	4.5138178e-32
44	0x8b8d3f2e	-5.4406287e-32
45	0x373aeafd	1.1141176e-05
46	0x384c15dc	4.865775e-05
47	0x388faf87	6.851466e-05
48	0xbac74df5	-0.0015205728
49	0xbaf2b36b	-0.0018516605
50	0xbae59c27	-0.001751785
51	0xb40765d2	-1.2609897e-07
52	0xb58b2ff5	-1.0370264e-06
53	0xb595d6eb	-1.1163914e-06
54	0x3a1a7649	0.00058922597
55	0x3a4b1209	0.0007746523
56	0x3a159458	0.0005706004
57	0xb8ea6c65	-0.000111781796
58	0xb905cde1	-0.00012760564
59	0x397576c5	0.00023409266
60	0xb2b91c42	-2.1549685e-08
61	0xb310da47	-3.3726135e-08
62	0x3255ba5a	1.2440603e-08
63	0xb81eb210	-3.783597e-05
64	0x392b3559	0.00016327704
65	0x3908ecb3	0.00013058148
66	0x00000000	0.0
67	0x914ff9b6	-1.6406369e-28
68	0x8702aa99	-9.830247e-35
69	0xba6f0bd6	-0.000911889
70	0xbaa2b71b	-0.0012414189
71	0xba9ee9f3	-0.0012124166
72	0xbaaf05bd	-0.001335315
73	0xbb09a90e	-0.0021005305
74	0xbaedd115	-0.0018143976
75	0x3abb5cfa	0.0014294677
76	0x3add4aef	0.0016883294
77	0x3a8a7304	0.0010562842
78	0xb8b46d61	-8.603442e-05
79	0xb90b71d3	-0.00013298476
80	0x382e2a8d	4.152446e-05
81	0x3a71ad5f	0.0009219255
82	0x3a7a3f53	0.0009546179
83	0x3a3d5157	0.00072218984
84	0x378ce287	1.6794786e-05
85	0x37a02efc	1.9095365e-05
86	0x380cfb21	3.3612483e-05
87	0x397d1dec	0.00024139107
88	0x391cc51b	0.00014950747
89	0x397cb20a	0.00024098917
90	0xba0ce4d8	-0.00053746765
91	0xba20279f	-0.00061094196
92	0xba234aa9	-0.0006229082
93	0x3a1393b7	0.0005629616
94	0x3a05a170	0.00050976034
95	0x39ced923	0.0003945316
96	0x390a31d2	0.00013179265
97	0x391104ff	0.00013830139
98	0x3814949d	3.5424357e-05
99	0xb9701738	-0.00022896833
100	0xb926a177	-0.00015891144
101	0xb988464f	-0.00025992325
102	0xb9872d3d	-0.00025782912
103	0xb99e97a5	-0.00030249092
104	0xb997f2eb	-0.00028981952
105	0xba95a6dc	-0.0011417526
106	0xbadc3166	-0.001679939
107	0xbac2ef35	-0.0014872315
108	0x398cff8c	0.00026893278
109	0x394dc3c0	0.00019623246
110	0x397a425f	0.00023866583
111	0xba5a77b7	-0.0008333879
112	0xba9396c9	-0.0011260147
113	0xba8f91e0	-0.0010953508
114	0x00000000	0.0
115	0x0a61cb0b	1.0871544e-32
116	0x00000000	0.0
117	0x391dbeca	0.00015043761
118	0x39617555	0.00021501382
119	0x38370b6d	4.364124e-05
120	0xb650776b	-3.1063926e-06
121	0x367224dd	3.6082267e-06
122	0x36a1a21b	4.8170455e-06
123	0x3a2b38b5	0.00065315823
124	0x3a1162e6	0.0005546048
125	0x39d88580	0.00041298196
126	0x39746683	0.00023307842
127	0x39777a7b	0.00023601383
128	0x39856ba2	0.0002544793
129	0x388d6739	6.742631e-05
130	0x3914dad6	0.00014195903
131	0xb842b9b1	-4.6426143e-05
132	0x38252865	3.9376686e-05
133	0x3883036d	6.247205e-05
134	0x390b8b99	0.00013308077
135	0x80000000	-0.0
136	0x00000000	0.0
137	0x138175ea	3.268045e-27
138	0x00000000	0.0
139	0x80000000	-0.0
140	0x18a59daf	4.281072e-24
141	0x38e24e17	0.00010791065
142	0x39147b27	0.00014160258
143	0x391b5598	0.00014813838
144	0x366c1d66	3.5183853e-06
145	0x3750946a	1.24323215e-05
146	0xb59b27f4	-1.1560028e-06
147	0x3a20a8fd	0.0006128697
148	0x3a38ad5c	0.00070448755
149	0x3a1fffcb	0.0006103485
150	0xb79b6cce	-1.8528106e-05
151	0xb60851d5	-2.0313212e-06
152	0xb83b335c	-4.4632106e-05
153	0xb7191b7e	-9.125912e-06
154	0xb7d2399a	-2.5060774e-05
155	0xb7aabdd8	-2.0353982e-05
156	0xb92a490c	-0.00016239675
157	0xb8f09b59	-0.000114730276
158	0xb98a84dc	-0.000264204
159	0xb9678968	-0.00022081065
160	0xb9814963	-0.00024659475
161	0xb9a33a7e	-0.00031133363
162	0xbb16a5ff	-0.0022987125
163	0xbb176ea7	-0.0023106725
164	0xbb1435e2	-0.0022615124
165	0xb9b14572	-0.00033811812
166	0xb9c85f2d	-0.00038217884
167	0xb9c49719	-0.0003749661
168	0xb985fc06	-0.0002555551
169	0xb9fcee28	-0.00048242626
170	0xba17f26b	-0.0005796316
171	0xb97951cd	-0.00023776964
172	0xb93724a7	-0.00017465894
173	0xb95f1ed0	-0.00021278416
174	0xb709cc39	-8.213386e-06
175	0x37edd9af	2.8353968e-05
176	0x38ace432	8.244104e-05
177	0x39e74b23	0.00044115735
178	0x3a015d89	0.00049348973
179	0x39088e47	0.00013022973
180	0x80000000	-0.0
181	0x8f8211e3	-1.282588e-29
182	0x9c3e014b	-6.28674e-22
183	0x1aac1af7	7.1181097e-23
184	0x1ca74d4f	1.1071117e-21
185	0x9c8599c5	-8.84095e-22
186	0x80000000	-0.0
187	0x00000000	0.0
188	0x00000000	0.0
189	0x0c94ee51	2.2946442e-31
190	0x8c6a848f	-1.8066595e-31
191	0x0c0ace42	1.0693202e-31

exp_avg_sq f4 [64, 1, 3]
0	0x348b207a	2.5914397e-07
1	0x3508e025	5.099012e-07
2	0x3508bb75	5.0936734e-07
3	0x36113055	2.1634817e-06
4	0x360c8c98	2.0943462e-06
5	0x36487d7c	2.9875364e-06
6	0x34c62465	3.6906854e-07
7	0x34c8edcf	3.7425932e-07
8	0x34d6fe06	4.0045433e-07
9	0x3626f94d	2.488104e-06
10	0x363bb417	2.7969998e-06
11	0x367dac15	3.7800103e-06
12	0x2ccfa539	5.9016373e-12
13	0x2bb4bbef	1.2841931e-12
14	0x2d8d2494	1.6046088e-11
15	0x368db00d	4.2226225e-06
16	0x36935af6	4.3915306e-06
17	0x36111a1b	2.162188e-06
18	0x346b439d	2.1910678e-07
19	0x3492b1cc	2.7323983e-07
20	0x34b05027	3.2840873e-07
21	0x259d047e	2.7238203e-16
22	0x2a3acd88	1.6591427e-13
23	0x2d04bd9d	7.545434e-12
24	0x3703312d	7.819658e-06
25	0x36ea34b8	6.9798807e-06
26	0x3760f99a	1.3409555e-05
27	0x2754bd02	2.9523371e-15
28	0x246c3d31	5.1226174e-17
29	0x2998a40f	6.7786156e-14
30	0x359dbecc	1.1752941e-06
31	0x35ab1e86	1.2749376e-06
32	0x35d4339a	1.5810249e-06
33	0x3539527b	6.9037895e-07
34	0x3563bd07	8.483916e-07
35	0x3562227c	8.424174e-07
36	0x33a638cd	7.7403094e-08
37	0x34217628	1.5037278e-07
38	0x3409881f	1.280864e-07
39	0x351fca8c	5.952686e-07
40	0x35204c66	5.971582e-07
41	0x350e44c9	5.299922e-07
42	0x2b743d0a	8.677092e-13
43	0x2b678355	8.2249946e-13
44	0x2cd7d6c9	6.1345135e-12
45	0x3351a1c2	4.8808722e-08
46	0x33b38c13	8.3608164e-08
47	0x33a937a7	7.879799e-08
48	0x37866410	1.602064e-05
49	0x37a3bda2	1.9519419e-05
50	0x3760cd20	1.33992e-05
51	0x30664528	8.377179e-10
52	0x3063fc1e	8.29404e-10
53	0x30c96bf6	1.4655359e-09
54	0x368b2484	4.146774e-06
55	0x3685cf6c	3.987856e-06
56	0x36a7511c	4.98643e-06
57	0x35a390bd	1.2186571e-06
58	0x35a882d5	1.2555053e-06
59	0x36bc1460	5.6052086e-06
60	0x2a07dd4f	1.206719e-13
61	0x2c4f63da	2.9471898e-12
62	0x2b45b194	7.02349e-13
63	0x352a3655	6.3409e-07
64	0x34e84e10	4.3270165e-07
65	0x35155ced	5.564205e-07
66	0x2c9b4cae	4.413878e-12
67	0x2d64a969	1.2997916e-11
68	0x2d2c3fe9	9.791259e-12
69	0x37384ddf	1.0985385e-05
70	0x3726fbfd	9.953042e-06
71	0x3700bd65	7.673491e-06
72	0x38889e2a	6.514446e-05
73	0x385dcc00	5.2880496e-05
74	0x37fec8cc	3.0372663e-05
75	0x379175f8	1.734028e-05
76	0x37ac850e	2.0565956e-05
77	0x37cb74bf	2.425385e-05
78	0x3544c9d7	7.3309405e-07
79	0x355be501	8.19171e-07
80	0x35a0cedd	1.1981134e-06
81	0x36daf77c	6.5257173e-06
82	0x370fa374	8.561521e-06
83	0x373b405b	1.11610525e-05
84	0x3401611c	1.204939e-07
85	0x34122314	1.3610071e-07
86	0x34220cd1	1.5092088e-07
87	0x34fcf3e9	4.7116126e-07
88	0x34c3fe18	3.6506458e-07
89	0x3500fa15	4.8047633e-07
90	0x36c88ba0	5.976719e-06
91	0x36a7e166	5.0032277e-06
92	0x368c79f6	4.1865233e-06
93	0x366d0d5a	3.5323524e-06
94	0x368772cb	4.036677e-06
95	0x36af62a4	5.2268897e-06
96	0x34cf367d	3.85964e-07
97	0x351384f3	5.4955234e-07
98	0x35247d3a	6.127699e-07
99	0x357dda2a	9.4567315e-07
100	0x35705d52	8.9542766e-07
101	0x35492cbd	7.494344e-07
102	0x353bbaf8	6.9935004e-07
103	0x354b0c9c	7.564174e-07
104	0x3564c394	8.522122e-07
105	0x3830b534	4.213043e-05
106	0x380fd64a	3.429343e-05
107	0x37a39068	1.9498359e-05
108	0x34a6504d	3.0978336e-07
109	0x34bd1fec	3.522722e-07
110	0x34c6112a	3.6892862e-07
111	0x373a5233	1.1105602e-05
112	0x373e5cb3	1.1346466e-05
113	0x370ce611	8.398217e-06
114	0x2bd5f7d3	1.5203345e-12
115	0x2d399c45	1.0550731e-11
116	0x2bacff72	1.2292235e-12
117	0x357edfdf	9.494815e-07
118	0x3593ff91	1.1026733e-06
119	0x35af72f7	1.3071975e-06
120	0x31821a19	3.786465e-09
121	0x31ab49fa	4.985165e-09
122	0x31be6f87	5.542407e-09
123	0x36811673	3.847113e-06
124	0x36a1ffd6	4.827957e-06
125	0x36ba8311	5.55849e-06
126	0x35deb793	1.6593716e-06
127	0x35add51b	1.2951526e-06
128	0x35e8784d	1.7320359e-06
129	0x33fda31e	1.18109014e-07
130	0x345522d5	1.9849843e-07
131	0x346f5e23	2.2292856e-07
132	0x35132402	5.4814166e-07
133	0x34cc3157	3.803386e-07
134	0x34f857c9	4.6257472e-07
135	0x2c962f85	4.268532e-12
136	0x2bb12dd1	1.2589323e-12
137	0x2d765f25	1.4004607e-11
138	0x2b1a6322	5.4849365e-13
139	0x2ca0dfdb	4.5723265e-12
140	0x2d997764	1.7447106e-11
141	0x33f4920e	1.13887026e-07
142	0x33e73cc0	1.0767826e-07
143	0x342c157d	1.6026566e-07
144	0x32d9d75e	2.5360062e-08
145	0x3301f67d	3.0259333e-08
146	0x32e0e07e	2.617912e-08
147	0x368668dd	4.005719e-06
148	0x367d8d45	3.7782168e-06
149	0x36b7498b	5.4623865e-06
150	0x34be40c5	3.5437384e-07
151	0x34d5f799	3.9854493e-07
152	0x34f6b239	4.5950745e-07
153	0x3304c222	3.0910208e-08
154	0x3303a52e	3.0651044e-08
155	0x33fbccd2	1.1725355e-07
156	0x34fbbfed	4.6892038e-07
157	0x3501720e	4.8222216e-07
158	0x34a1fe5b	3.0173655e-07
159	0x3536eaa3	6.8141725e-07
160	0x35564eb0	7.983572e-07
161	0x3535449f	6.752761e-07
162	0x37b89104	2.2002037e-05
163	0x38013c42	3.0812116e-05
164	0x37ab0ba9	2.0390218e-05
165	0x368324a8	3.9083716e-06
166	0x36614b0d	3.3571298e-06
167	0x36072239	2.0136488e-06
168	0x3667ec4f	3.4559232e-06
169	0x3640577b	2.866115e-06
170	0x361f7744	2.3762268e-06
171	0x340b7136	1.298657e-07
172	0x34027805	1.2150856e-07
173	0x341548ce	1.3903193e-07
174	0x345ee799	2.0759616e-07
175	0x349febc9	2.9787614e-07
176	0x34c62c96	3.6912814e-07
177	0x3638bcf5	2.7528124e-06
178	0x366e17b3	3.5478558e-06
179	0x368749a7	4.031888e-06
180	0x2cad4618	4.9247377e-12
181	0x2d5873f9	1.230393e-11
182	0x2db9646e	2.1076665e-11
183	0x2a36e4d6	1.624424e-13
184	0x2a3d5da1	1.6819056e-13
185	0x2aec0146	4.1922905e-13
186	0x29c01b90	8.531294e-14
187	0x2c2d22fa	2.4604195e-12
188	0x2430afb8	3.8312756e-17
189	0x29b8bf93	8.204474e-14
190	0x2d425925	1.1047417e-11
191	0x2aa317ca	2.8971123e-13
