checkpoints/forecasting/gru-epoch=45-val_loss=0.01.ckpt (torch, 837918 bytes, 15 tensors)

gru.weight_ih_l0 f4 [450, 1]
00000000: cbf5 9abd 15a4 06be 6c61 6a3c d463 1ebe
00000010: aa88 10be 3450 74be 4322 9f3d 7164 34be
00000020: e680 0bbe 3b77 97bd 3ed0 6e3e 44d6 943c
00000030: 10f5 2cbd dabd 41be f10b 6cbe 575b 84be
00000040: eddc 8abe b035 63be fe52 203d 4f95 613d
00000050: 1743 1abe 2b6f 29bc 9ea4 3abe 016d f53d
00000060: e89e c1bd c5ea a7bd 38ef 57be 3d06 adbd
00000070: 1e9c 133d 4105 12be d7dd e43c 83d5 7a3e
00000080: de56 c53e eacf 6ebe 5463 b03d 1389 35be
00000090: 8a07 9abd ed8c b5be 7bf7 e63d 39ad a3be
000000a0: 06f3 793e 16e5 c5bd ad64 92bd 7111 583e
000000b0: c7f5 9ebe 92ac d1bd 4c21 b0be fd97 29be
000000c0: 7751 2f3d a644 81be d658 57be db08 633e
000000d0: 7606 823c 71b8 ffbd 8815 3dbe aa5b babb
000000e0: 6570 94be 6313 b6bd d973 ebbd 103f 24be
000000f0: 4717 b8bd 9443 9ebe a540 383e c1c6 1cbe
00000100: dc32 063e d14c 19bd 62e6 2abe ec8d 08be
00000110: 64d1 fbbc a016 78be 3538 b6be 1941 0f3d
00000120: b651 0cbe d757 92be 51ee 0dbd 9371 18be
00000130: 330e 99bd b542 1a3e 4d85 143e ab9a dfbd
00000140: 6569 423b 278a 58bd 62bc f2bd 2408 64be
00000150: 7f2f 8bbd ad14 63bc 1ecd 3abd d154 a1be
00000160: 2174 77be 10d0 2c3d 7077 92be 1c15 51bd
00000170: d005 443d e38b 4bbc 9ea4 f5bc 7ad0 68bd
00000180: 0aca 4dbe 0019 7a3d e977 94bd 9267 723d
00000190: 24c7 86be fca1 1ebe 9710 053c 570a 24be
000001a0: 8d08 d33c 3212 78be 4114 753e a8c9 aebd
000001b0: 2813 8abe f00e 02be b271 52be ca08 73bd
000001c0: f7ea 87bd fb7f 14bd 259e 18be a880 ecbd
000001d0: def9 aabe 5d74 533d d958 21be 62b6 c4bc
000001e0: ef5e 89be 7d9b 22be 6be6 a0bd b2ba a6bd
000001f0: 6387 a6be e207 d33d e8c0 b3be cc6c 06be
00000200: 7e8b fa3d bba0 7bbe aa36 61be c9f2 f4bc
00000210: cd8b 22be 5630 613e f727 523d 48bb 3abe
00000220: b3ff 2b3e 326b 7b3e 2b1b a4bd ddd6 0ebe
00000230: 91aa f0bd 72f8 3dbe 39d5 44be 2929 b73d
00000240: d919 943d c2c5 173d 7fd1 973d faf9 8ebd
00000250: 18f8 093e e444 bb3c 847a 4c3f 6047 373f
00000260: 4ca4 5b3e 71e6 413f 09e3 263f ec73 113f
00000270: c16e 9bbd ab90 4e3f 0b49 303f 387a 4b3f
00000280: f420 243f f871 003f 400c 243f 36ae 403f
00000290: 5d2b 333f 7cde 203f 4bb5 0b3f e395 fc3e
000002a0: 867b 1f3f 47c8 9b3e 854c 3f3f b89c fa3e
000002b0: ff05 1d3f 677f 223f c5e5 3f3f a834 413f
000002c0: 5554 523f 778e be3e 072a c83e 160e 3b3f
000002d0: 92ff 3b3e aba5 513f 5f80 223f 5ab0 4d3f
000002e0: 675a 503f eb67 363f a02c 3e3f 608b 303f
000002f0: c233 d43e f743 273f aba1 1a3f b492 dd3e
00000300: dc4a dc3e dcd0 bf3e 1581 423f fa89 41be
00000310: 3052 443f 3adb 393f f436 3f3f 4a61 103f
00000320: 4100 3b3f a7af cc3e 4ad3 373f e62a f8bc
00000330: 7ae4 173f b15a 243f 0756 503f 00fa f53e
00000340: 9c7c f93e a8bf 783e 4539 213f d11e 3c3f
00000350: 5bf2 503f 504e 2b3f 8bd7 263f 325d ce3e
00000360: 4e73 383f 1f48 073f 2779 473f 6da4 213f
00000370: f602 553f 73a9 fe3e 934e 543f 2d3f 523f
00000380: 90f4 203f 31cb d73e 9540 303f 193a 2a3f
00000390: ae50 4d3f a2b3 263f 5419 5c3f 31eb e33e
000003a0: d7e1 f13e 56f7 263f 454a 1e3f 4a5a 5e3f
000003b0: 6b15 2e3f f9c2 4a3f ed4f 4f3f 073d 213f
000003c0: df04 403f ec16 ea3e 682e 363f 62a3 473f
000003d0: 56a6 1a3f d681 453f fbad 373f 96d1 3a3f
000003e0: 5308 b2bd 426b b63e 90df 223f ff59 343f
000003f0: 5010 c23e 6513 243f 4d81 fb3e aba7 5d3f
-0.075664125 -0.1314853 0.014305454 -0.15467769 -0.14114633 -0.2385872 0.07770207 -0.1761644
-0.1362339 -0.07395788 0.23321626 0.018168576 -0.042225897 -0.18920079 -0.2305143 -0.25850937
-0.27121678 -0.22188449 0.039141648 0.055074032 -0.15064655 -0.010341446 -0.18226859 0.119836815
-0.09454137 -0.081990756 -0.21087348 -0.084484555 0.036037557 -0.14259817 0.027937813 0.24495511
0.38542837 -0.233215 0.08612695 -0.17728071 -0.07520969 -0.3545908 0.11277672 -0.31968096
0.24409112 -0.09662835 -0.07148109 0.21100403 -0.31046888 -0.10237993 -0.34400403 -0.16561885
0.0428023 -0.25247687 -0.21029982 0.22171347 0.015872221 -0.12486351 -0.18465245 -0.0056871967
-0.28992 -0.088904165 -0.114967056 -0.16039681 -0.08988815 -0.30910933 0.1799341 -0.15310194
0.13105339 -0.037426773 -0.16689447 -0.13335389 -0.030739494 -0.24227381 -0.35589758 0.03497419
-0.13703045 -0.2858264 -0.034651104 -0.14887075 -0.074734114 0.15064509 0.14503975 -0.109181724
0.002966487 -0.052866127 -0.118523374 -0.2226873 -0.067961685 -0.01385991 -0.04560577 -0.31510022
-0.24165393 0.04219061 -0.2860675 -0.051045522 0.047857106 -0.012423488 -0.029985722 -0.056839444
-0.20096603 0.061058998 -0.072494335 0.059180804 -0.26323807 -0.1549148 0.008121631 -0.1601957
0.025760913 -0.24225691 0.23933508 -0.085345566 -0.2696774 -0.1270101 -0.20551184 -0.059334554
-0.06636613 -0.036254864 -0.14904077 -0.11547977 -0.3339376 0.051624645 -0.15756549 -0.024012748
-0.2683024 -0.15879627 -0.07856449 -0.08141078 -0.32525167 0.10304238 -0.35108113 -0.1312744
0.12233637 -0.24573033 -0.21993509 -0.029900925 -0.15873642 0.21991095 0.051307645 -0.18235505
0.1679676 0.2455261 -0.080129944 -0.13949151 -0.11751283 -0.18551806 -0.19221963 0.089433976
0.072314925 0.03705383 0.07413005 -0.06981273 0.13473547 0.022859998 0.79874444 0.71593285
0.21449393 0.7574225 0.6519018 0.5681751 -0.07589484 0.80689496 0.68861455 0.79483366
0.6411278 0.501739 0.6408119 0.75265825 0.6998804 0.62839484 0.54573506 0.49333104
0.62297857 0.30426237 0.74726135 0.48947692 0.61337274 0.6347565 0.74959975 0.7547097
0.8215993 0.37218067 0.39094564 0.7306837 0.18359211 0.81893414 0.6347713 0.80347216
0.81387943 0.71252316 0.7428684 0.6896267 0.41445738 0.6533808 0.60402936 0.43275988
0.43025863 0.37464035 0.75978214 -0.1890029 0.7668791 0.7260014 0.74693227 0.5639845
0.7304726 0.39977762 0.71806777 -0.030293893 0.59333 0.64200884 0.8138127 0.48042297
0.48727882 0.24291861 0.6297801 0.7348452 0.81619805 0.6691637 0.6517264 0.40305477
0.7205094 0.52844423 0.7791924 0.6314152 0.83207643 0.49738654 0.82932395 0.8212765
0.6287317 0.4214721 0.68848544 0.664949 0.8020123 0.6511785 0.8597615 0.44515374
0.47242615 0.65221155 0.61832076 0.8685652 0.6800143 0.79203755 0.8098133 0.62983745
0.7500743 0.45720613 0.7116456 0.7798368 0.6041006 0.7715124 0.7174985 0.7297605
-0.08692994 0.35628706 0.6362238 0.70449823 0.3790307 0.64092094 0.49122086 0.86583966

gru.weight_hh_l0 f4 [450, 150]
00000000: 935c 253e 0cdf bc3d 8339 0a3d 9af2 fa3d
00000010: 73cb 273e 3920 7abd e6f4 4cbd 6111 94bd
00000020: 9608 f0bd 09c7 7cbd 7509 7bbc b111 103e
00000030: 3bad 533e 3f93 7b3d de47 f7bc a7b8 d33d
00000040: 2660 2f3d 4e98 e9bd b1aa a1bc b432 543d
00000050: 1c94 91bc 808a 8ebd 0f03 96bc f1f5 863d
00000060: 0d88 223e 20ba 51be d8d3 063e 0d11 a1bc
00000070: 832f 1ebd fbf1 1abc 33f5 473b 93e0 603b
00000080: 1a83 843c e1e7 16bd 8e7a 15bd 8c5e 393e
00000090: 6f57 0f3e 1e1f 4f3d 9210 813d 7b6d 5c3c
000000a0: bac5 bfbc 786a 033d adc7 f83d 7b6f 2b3b
000000b0: 1d5d 0bbe ecb9 bf3d ff8d 16be 3ec1 39be
000000c0: a7e8 6e3d 2b9d 0e3d 6383 d93d e38d aabd
000000d0: 8955 903d 3590 3bbd 39a6 9c3d 1399 8a3c
000000e0: 9b25 353e bcf5 1e3d c82c 44be fc69 063d
000000f0: ad85 3d3d ad20 98bd 6728 1c3e ccd9 b13c
00000100: 4863 0fbc bb87 f83c e641 a3bc 6edb 3a3b
00000110: 7e70 d0bc 3228 22be 8403 05be 7c64 bd3d
00000120: 6890 09be cf98 053e 9f08 4237 9085 713d
00000130: d96c 01be 98b6 e83c 1c54 d13d efa8 c93d
00000140: d13a 2e3e 5842 ff3c 6a51 09bc 2f67 87bd
00000150: bae8 9f3d 0d3a 323e 8555 d1bb a825 8fbd
00000160: 0c6e a4bd c93f a73d b0fe dfbd 08d3 62bd
00000170: 941b c9bd 4bb8 12bd 8e38 2cbc f35e 41bc
00000180: bb23 593e 4657 8e3c 3dab b43c f003 0e3d
00000190: ab4f a1bd beb4 0ebe 2f7c 74bd f78b 843d
000001a0: 7f48 9dbb bdb0 243d 6ca5 0c3d 6618 663e
000001b0: fc38 a9bc 9460 2d3e 672b 843d ae2c 113e
000001c0: 25f6 0f3e 9990 d9bd bed5 823d 6813 ccbc
000001d0: a907 1dbe 3f8d 153d 638a 943d 5fc8 f0bd
000001e0: 1e57 32bd 2204 22be 2406 cfbd f7fa 90bd
000001f0: 6ae4 103e 0f36 b43d 78c3 173e 4611 c03d
00000200: 3939 1d3d f4f7 3cbe 3a60 f83d 85eb 63bd
00000210: 9079 90bd b940 883c 5779 7c3c 2f3b bbbc
00000220: 7262 933b 680b 0ebc acfb 00bd c77c 5abc
00000230: 9906 b1bc 7693 9cbc a5a5 adbc 21bd 223e
00000240: a161 5d3e 63df b3bd 77a0 acbc 7a29 46bd
00000250: b496 99bd 385f 54be 8ebc 0abd 798e 87bd
00000260: fda7 a6bd a6dc 793d bc3d 7f3d 7341 fb3c
00000270: 2cf7 8fbd 17a4 9b3d c03d febc 20ae 4dbd
00000280: 41ba 0abd 2aeb 383c 7959 813d fac7 863c
00000290: 9155 2abc d935 063d 4e98 7e3c 7bf2 88bc
000002a0: 46bf d1bc e7c0 03bd 9fd0 2b3d aa9e e73c
000002b0: 6603 65bd b057 2ebd 627d a63d 2101 3cbd
000002c0: 1b13 c73d 9b57 dabb 7ed6 89bd 2067 4c3d
000002d0: 3d90 84bc 6a91 233d f780 5abd 2d4e 3dbd
000002e0: e5ae eabc 7fb5 5dbd 3918 14bd 142d abbd
000002f0: eee2 05bc 42d7 683d 49f1 16bd 4f19 b6bc
00000300: 5104 85bd f67b 81bd 5e6a 40bc 8725 85bd
00000310: 4ab2 8bbd 5870 14bd 60f1 d9bc 0074 a5bd
00000320: 3fb0 723d 35e9 093d 9bb4 013d eaf4 29bd
00000330: bd85 463d 5c44 52bd 4bbe a93c 4899 643d
00000340: 579b 9ebd ad6b 49bd e964 20bc a3d5 953c
00000350: 7896 59bd e40c fcbc 0e3b 6bbd 1ebf 5c3d
00000360: 1cd0 e93c c082 44bd f224 c43c 9f1c 183d
00000370: fb4d 3f3c ce7f 6d3b e3fd be3c 648b 063c
00000380: 048b 86bc 8b94 483c 968f b43b e36f 323d
00000390: e83b 9ebd 4344 08bd 9de1 73bd 8c57 1e3d
000003a0: b5fe 5bbd a40b 24bd ea5a 853d 20d5 b93d
000003b0: dd63 bb3c a9f1 a0bd 9dd4 7b3d f3d3 b3bd
000003c0: 5c61 e4bc 3094 16bc 6dad 043d 3cb9 b2bc
000003d0: 3199 62bc ed63 0ebd 95b0 92bd 3950 723d
000003e0: decf 843c 30a2 963c 5a72 15bd ab4a 7cbd
000003f0: 9953 7d3d ec76 b2bd d769 b83d 9dff 2f3d
0.16148596 0.0922223 0.033746254 0.12253304 0.16386203 -0.061065886 -0.05003824 -0.07229877
-0.11720388 -0.061713252 -0.015322079 0.14069249 0.20671551 0.06141972 -0.030185636 0.10337954
0.042816304 -0.11406003 -0.019734712 0.051806167 -0.01777082 -0.069600105 -0.018312005 0.06589878
0.15872212 -0.20481157 0.1316675 -0.01966145 -0.03861953 -0.009457107 0.003051114 0.0034313544
0.016175795 -0.03684223 -0.03649383 0.18102473 0.13998197 0.050566785 0.06301989 0.013453837
-0.023409713 0.03208396 0.1214746 0.0026158977 -0.13609739 0.09361634 -0.14702605 -0.18140122
0.058327343 0.034817856 0.10620763 -0.08327844 0.070475645 -0.045791823 0.07648892 0.016918695
0.17690127 0.03880857 -0.19157708 0.03281592 0.04627006 -0.074281074 0.15249787 0.021710299
-0.008751698 0.030338159 -0.019928884 0.0028512138 -0.025444265 -0.15835646 -0.12989622 0.092476815
-0.13433993 0.13046573 1.1565308e-05 0.058965266 -0.12639178 0.02840738 0.10221121 0.09846675
0.17014624 0.031159565 -0.008381227 -0.066114776 0.07808061 0.17404957 -0.0063883686 -0.06989604
-0.08028802 0.08166463 -0.1093725 -0.055377036 -0.09819713 -0.035820287 -0.010511531 -0.011802423
0.21205036 0.0173756 0.022054309 0.034671724 -0.078765236 -0.13936135 -0.059688743 0.06472009
-0.004799902 0.040207613 0.034337446 0.22470245 -0.020657055 0.16931373 0.06453591 0.141772
0.1405874 -0.10623283 0.06388424 -0.024911597 -0.15334953 0.036511656 0.07252958 -0.11756968
-0.043540113 -0.15821889 -0.10108593 -0.07079118 0.14149633 0.08799373 0.14820659 0.09378295
0.03838465 -0.18453962 0.12127729 -0.05564453 -0.07054436 0.016632425 0.015409789 -0.02285537
0.0044978196 -0.008669712 -0.031490013 -0.013335413 -0.021609591 -0.019113284 -0.02119715 0.1589246
0.21619274 -0.08782842 -0.02107261 -0.0483794 -0.074994475 -0.20739448 -0.033871226 -0.066189714
-0.0813751 0.061001442 0.062314734 0.030670857 -0.07029566 0.07599657 -0.031035304 -0.050214887
-0.03386903 0.011286536 0.06315894 0.016452778 -0.010396377 0.032766197 0.015539242 -0.016717186
-0.025603902 -0.032166388 0.041947003 0.0282739 -0.055911444 -0.042564094 0.081293836 -0.045899514
0.09720441 -0.0066632754 -0.06730364 0.049903035 -0.01618206 0.0399336 -0.053345647 -0.046217132
-0.02864785 -0.054128166 -0.036155913 -0.08358207 -0.00817178 0.05684591 -0.0368512 -0.022228865
-0.06494964 -0.06322472 -0.01174411 -0.065012984 -0.06821115 -0.03623995 -0.026604354 -0.08078766
0.059250113 0.03366967 0.03166638 -0.041493334 0.048467387 -0.051334724 0.020720622 0.055810243
-0.077444725 -0.049174953 -0.009789684 0.018290346 -0.053122014 -0.030767865 -0.057429366 0.0538932
0.028541617 -0.047976255 0.023943398 0.03713667 0.011676307 0.0036239508 0.023314422 0.008211944
-0.01642371 0.012242447 0.005510281 0.043563735 -0.0772627 -0.033268224 -0.059541333 0.03865771
-0.053709704 -0.040050164 0.06511481 0.090738535 0.022874767 -0.07858593 0.06148206 -0.087806605
-0.027878456 -0.009190604 0.032391954 -0.021816842 -0.013830469 -0.034763265 -0.071625866 0.059158538
0.0162124 0.018387884 -0.036486007 -0.061594646 0.061847303 -0.08714089 0.09004562 0.04296838

gru.bias_ih_l0 f4 [450]
00000000: f842 1bbe 4986 793d 8a96 463c dbc1 88bc
00000010: 634d 0ebe a19f 83bd 86ec 0bbd fc2d 13be
00000020: f216 0c3d a290 b4be 0978 dcbd f82f 6bbd
00000030: a8e6 06be 85a2 99bd 6746 3dbd 2fa0 6abe
00000040: 38c5 9fbd 44b9 7cbc 115f ffbd 8e5a 2dbd
00000050: d0f6 4abc 39df 1fbd ac57 373d 92f0 57bd
00000060: 88bf eebd 2148 74bf c307 54be 42bc d1bc
00000070: eafa a0bb 440e cdbc 4fb9 b03d 3052 3bbc
00000080: 0fc5 933d 047c 5fbe 397b 07be 17f9 9bbd
00000090: a582 c2be e905 b4bd 9b29 e4bd 3f11 e3bd
000000a0: 7840 b6bd 30d5 19be 8603 c83a 46cb c9bd
000000b0: 0779 b1bd 4429 e63c 1f56 89bd c60e eabd
000000c0: 5f0c c9bb f60f bbbc c5de a1bd 8c3e 9bbd
000000d0: f6fc 19be 47e5 d5bd 626b 84bd 4ba0 45bd
000000e0: 95d9 7fbd f435 8d3b 323f 55bc b6a4 e2bc
000000f0: a386 8f3c 8cc3 b4be 0a5d d6bd 6f6d e3bd
00000100: 09a2 48bd cc67 b0bd 0280 6fbd cdb1 adbd
00000110: 1179 30be b640 1bbe 1b9b 913d c6e0 84bd
00000120: 0629 68be 2688 e7bd d892 55bc 9c12 c339
00000130: 5ba3 a4bc c086 e5bd 7c27 2a3b 0b5d 91bd
00000140: 9f12 33be 1dd5 8ebc f0b9 30bd 7c67 a7bc
00000150: 2d5a 173d d738 0cbe e097 0abe 17bd 77bd
00000160: c20b f83c 7b29 d0bd 34a7 5bbe d85c ccbd
00000170: 6d15 22bd 851a f6bd 9d27 2bbe 627a 98bc
00000180: 443c 8abe 72cf d6bd 84da 0dbe 7735 58bd
00000190: 9497 dfbd 473f 80be 6633 fcbd 583d 89bd
000001a0: 9efe c7bb c00a 47be 7ddc a1bd f0ac 9bbe
000001b0: 8e3a 693c 8b3e 97bd 0d9c 32bd 6ecf 07bd
000001c0: 08bf 0dbe 3df1 99bd 21a1 10be c4f3 ff3b
000001d0: c2e2 94bd 7fc5 ebbd 12df c2bd 53a3 54ba
000001e0: ed95 1ebe 77a2 0ebe c3d3 883d e0e0 53bd
000001f0: c791 55bd 5bee efbd 7507 52bd 6939 0dbe
00000200: f31a 65bd 7b35 a5bd df31 19be 290f afbb
00000210: 128c 9ebd effc 30bd 9b05 d1bd 2715 7dbd
00000220: 0041 83bd 769f 5d3c ecb9 82be 2557 afbc
00000230: c4af 27be 016e c0bd 71e1 70be e174 acbe
00000240: e2eb 6fbd 0bdf 1ebe c284 f3bd 3815 64bd
00000250: ebe4 6fbd bf0a 09be 97e0 27bc a71e 7cbd
00000260: 7685 b83d 3e31 9bbd afce c1bb 00d1 283e
00000270: fd29 e13d 6d99 efbb 10de aabd d067 b7bd
00000280: bd8c 453d 62cf 2bbe 59d1 0bbe fa6f 06bd
00000290: 0876 f2bc 9c8f 63be f41a b83b 9940 e43c
000002a0: f5df aa3d e6b1 0e3e 13de d1bc f609 d53c
000002b0: 82ca 96bb 98b9 4e3b 5dbb 8d3d d3fc 53be
000002c0: c5e9 bcbd e2ff 7c3e c06e 43be 3e18 0bbd
000002d0: 121e 2dbe ce06 fdbd f7dd b0bb 8656 0ebe
000002e0: 8939 0dbe 620b b4bd 1adf 0fbe 5eb9 2abe
000002f0: 5124 3b3e d116 1fbe e635 51bd a782 df3d
00000300: 4ae8 82bc 64ea 2d3d 6dc4 5ebe 5028 533e
00000310: 7866 adbd 912b 2dbe 0134 76be 6ef5 e4bd
00000320: b8a9 c9bd 50af ce3d 3732 9fbd 398a 8a3e
00000330: 9931 ce3d 9161 d3bd 33d5 45be aba9 743e
00000340: 96ae 1f3e e790 a23e 6fed aebd e810 60be
00000350: 940e 4abe 7295 94bd d2d8 08bd 18ba 8f3d
00000360: 7aa6 243d ee59 e93d 9890 01bd 71c3 3dbe
00000370: 9850 06be 729a 033e 2299 1bbe a36f 9ebd
00000380: 1bdd 553d 5c4e 283e e1c7 a83c 26a0 1bbe
00000390: 8a19 37be d939 28be b6ab f3bd ef9a 5f3e
000003a0: c1b6 ef3d 51dc 583c a17a 443e 8351 c2bd
000003b0: 461d ba3c 0a3d e2bd c034 d2bd 668b dabd
000003c0: 351e 26be 823d 133b b558 133e 5051 30be
000003d0: 3c0d 103d 4e5b f3bd f5c3 40be 41fa f7bd
000003e0: 0486 8a3d 1093 5e3e 120c 33be a06b 50be
000003f0: c654 c4bc ac8f c2bc d607 333e 2916 b7bd
-0.15162265 0.06091908 0.012120852 -0.016694 -0.13896708 -0.06426931 -0.034161113 -0.1437301
0.03420157 -0.35266596 -0.107650824 -0.057418793 -0.13173926 -0.07501701 -0.04620972 -0.22912668
-0.07801288 -0.01542503 -0.12469304 -0.042322688 -0.012387946 -0.03903124 0.044761345 -0.05271966
-0.116576254 -0.9542256 -0.20706086 -0.025602464 -0.004912724 -0.025031216 0.08629095 -0.011433169
0.0721532 -0.21824652 -0.132306 -0.076158695 -0.379903 -0.0879019 -0.11140748 -0.11087274
-0.08899015 -0.15022731 0.0015259839 -0.098532245 -0.08665662 0.028095849 -0.067058794 -0.11428599
-0.006135508 -0.02283476 -0.07903818 -0.07580289 -0.15037903 -0.10444122 -0.06465794 -0.04824857
-0.06246336 0.00430941 -0.013015555 -0.02766643 0.017520254 -0.3530544 -0.104669645 -0.11104857
-0.048982654 -0.08613548 -0.058471687 -0.084811784 -0.17233683 -0.15161404 0.07109662 -0.06488185
-0.22671899 -0.11305265 -0.013035499 0.00037207163 -0.020097425 -0.11207342 0.0025963476 -0.07097825
-0.17487572 -0.017435605 -0.043146074 -0.020435087 0.036951233 -0.13693558 -0.13534498 -0.060483065
0.030279044 -0.10164162 -0.21450502 -0.09978646 -0.039571214 -0.12016777 -0.1671433 -0.018613044
-0.26999104 -0.10488786 -0.13852888 -0.052785363 -0.10917583 -0.25048277 -0.12314491 -0.067011535
-0.006103351 -0.19437695 -0.07903383 -0.30405378 0.014235152 -0.07384976 -0.043605853 -0.033156805
-0.13842404 -0.07516716 -0.14123966 0.0078110415 -0.07269813 -0.11512279 -0.095152035 -0.00081114954
-0.1548688 -0.13929163 0.06681015 -0.05172813 -0.052140977 -0.117153846 -0.051276643 -0.13791431
-0.055933904 -0.08066841 -0.1496043 -0.0053423834 -0.0774156 -0.043209966 -0.10206147 -0.06178775
-0.06408882 0.013526788 -0.25532472 -0.021403858 -0.16375643 -0.093959816 -0.23523499 -0.33682922
-0.058574565 -0.15514772 -0.11890556 -0.0556843 -0.058567923 -0.13383006 -0.0102464175 -0.06155267
0.09009831 -0.075777516 -0.005914531 0.16485977 0.10994337 -0.007311991 -0.08343136 -0.089553475
0.04822992 -0.16778329 -0.13654079 -0.032821633 -0.029597297 -0.22222751 0.0056184474 0.027862834
0.08343498 0.1393505 -0.025618589 0.026005726 -0.0046017775 0.0031543728 0.06920502 -0.20701914
-0.092242755 0.24706987 -0.19085217 -0.033958666 -0.16906002 -0.123548135 -0.005397554 -0.13900194
-0.13791479 -0.087912336 -0.1404995 -0.16672274 0.18275572 -0.15536048 -0.051076792 0.10913592
-0.015979905 0.04245986 -0.21754618 0.20620847 -0.0846681 -0.1691115 -0.24043275 -0.111796245
-0.098468244 0.10092032 -0.077732496 0.2705858 0.10068054 -0.10321344 -0.1931961 0.23892848
0.15593943 0.31751177 -0.085413806 -0.21881449 -0.19732124 -0.07255067 -0.0334099 0.070179164
0.040197827 0.11394106 -0.031632036 -0.18531586 -0.13116682 0.12851885 -0.15195134 -0.07736137
0.052212816 0.16436142 0.020603122 -0.1519781 -0.17880836 -0.16428317 -0.11897986 0.21836446
0.117047794 0.013236121 0.19187404 -0.094882034 0.022719037 -0.110467985 -0.102639675 -0.106711194
-0.1622246 0.0022467081 0.14389308 -0.17218518 0.03516887 -0.11882649 -0.18824752 -0.12108279
0.06763843 0.21735787 -0.17485073 -0.20353556 -0.023966204 -0.023750149 0.17483458 -0.089397736

gru.bias_hh_l0 f4 [450]
00000000: bbee 25be 565a 20bd b139 853c 10da c8bd
00000010: a120 04be 9b5b c03a c5d0 dcbb 2d77 1abe
00000020: 761b 7ebd 35d2 b3be 632d ff3c de29 6abd
00000030: 6736 18be b1cf f5bd 613b 06be c8c3 34be
00000040: 6586 00be 6668 16bd 0ad5 21be 3402 373c
00000050: a4cd 5c3c 56e9 d9bc 31f8 d9bd a7e5 d2bd
00000060: 1132 64bd bfff 62bf 740c 72bd 3c85 3b3d
00000070: ae07 8c39 9436 2dbd f160 c6bc 4476 f53c
00000080: 27f6 bf3c 0445 adbe 96e3 ca3c 0b3a 773c
00000090: a68b 77be 75b2 23bd 31aa 18bd f6f6 7cbd
000000a0: 0ec6 a53c 0b01 7abe b496 dfbd 1d9d 45be
000000b0: 0308 8fbd 335d 0f3d c720 05bd cfc7 eabd
000000c0: 8e32 edbd 613c 9b3d 2117 38bd 0458 713d
000000d0: 0910 1cbe 8ec7 00be aa21 88bd f6bc 92bd
000000e0: dd72 4dbd 1c83 5cbd 2a44 debd 55a5 aebd
000000f0: 1356 a63a d8ca 8cbe 43cd 26be 3db4 8bbd
00000100: e1a0 e1bd 1048 ccbd 8851 93bc 2103 0bbe
00000110: bbde 94bd 72b6 99bd 5a15 80bd 1310 773c
00000120: eb21 30be a839 bebd b1b8 a8bd 779e 9bbd
00000130: cd06 f8bd 8107 0abe 84c0 4cbd ce90 8ebd
00000140: 5c35 22be d2db 42bd f197 4ebe d2ea 92bd
00000150: 5a86 9cbd 3082 37be 4f20 88bd 1a1d 03be
00000160: 54d0 ec3c d610 51be cbb4 e7bd afc7 b73c
00000170: d327 cfbc 829c 00be d4f3 46bd 7e32 6bbd
00000180: da2b 53be ef52 c8bc 68e1 aabd 057c 9c3c
00000190: c633 24be 8176 86be cb97 02be 57b0 0cbd
000001a0: 145b 6cbd f646 b3bd 531d c43c cd34 7ebe
000001b0: aef0 04be 974c 3cbe 1b54 43bd 2f5f fdbd
000001c0: 3280 2c3a ecf2 f1bd 7e6f 46bc c840 3fbc
000001d0: 3f07 8ebd d722 dcbc 93d6 2dbd c586 a9bd
000001e0: 0339 b3bd bb31 93bc 5627 46bc d9c1 4cbe
000001f0: 809a b8bd 622d cfbd 5844 10bd 961e 13bd
00000200: 0517 8dbd 0866 b7bc 7e8f 66bd 17e8 d7bd
00000210: ca85 bfbc 148f 2fbd fe30 32be 2043 33bd
00000220: 81f4 a3bd df3b 7bbd 8c6b 8abe c990 e0bd
00000230: da1e 3abe ce15 89bd ecda 8fbe 0b5b b3be
00000240: 8bdf afbd 3395 05be 780a 55be 8247 1cbd
00000250: 4424 17be 87b7 29bd 4274 3bbb c27d 48bd
00000260: 61ac 093d 854e 99bd cc34 97ba 9fb6 f63d
00000270: cde6 563e e453 94bd bf11 ecbb 5e78 18be
00000280: cbb1 39bc 5d77 0abe ec02 2abe abc3 7f3c
00000290: 669b d23c 27ac 57be 08db 4ebb 9636 8e3d
000002a0: 6868 ab3c e9df 883e acd2 abbc 4f6f 863d
000002b0: 701b 523d 08f4 cb3c 8019 e4bc a904 69be
000002c0: 6e52 9abd 5e97 633e 1c98 d6bd 07dd febc
000002d0: 08af 0dbe 9190 01be 4ce3 c83d 56fa 39be
000002e0: f3cd 23be bc36 4dbe bf3c e8bd 8962 28be
000002f0: 7038 2d3e b463 dbbd 3de5 a03c 04e7 c13d
00000300: 9fdb 253d c5a0 2ebd f1d0 51be 0211 203e
00000310: eca0 f2bd c3b8 49be 690b 76be 85ab 31be
00000320: 6034 44be 0fab c0bc 9463 4fbe 98af 643e
00000330: aa6d 0a3e a7fb 25be 0f7d 0dbe 5a31 bd3d
00000340: 907b d63d c2a3 7d3e a2af 64bd 21c5 57be
00000350: 9e06 45be 25be 0fbd 3271 f8bc bf85 c33d
00000360: 6c31 a23a bf64 193d 26bc 403d da53 3dbe
00000370: fe1f 05be d3ee b73d 5184 92bd f2ae e0bd
00000380: b41d 7dbd 8edb 383d d462 893d 4e2b 81bd
00000390: 8c3f 89bd 6051 4dbe 6a0f 5abe a61a ea3d
000003a0: 73ab 263e a4ca 08be 61cc 223e aa6b c4bd
000003b0: ca49 f03c 4b08 dfbd 2555 95bd 01f3 77bb
000003c0: 212f 33be 7820 b83d b813 293d 5c94 a0bd
000003d0: 5a41 8abc 3995 87bd faf1 0ebe 0d0c 39bc
000003e0: 596d bf3d 8757 653e 2343 cdbd 680c 23be
000003f0: c9d5 393d c603 34bd 78ac 323e 655b 3dbe
-0.1620435 -0.03914865 0.016262861 -0.09807217 -0.12903072 0.0014675738 -0.0067387545 -0.15084524
-0.062037908 -0.35121313 0.031149572 -0.057168834 -0.14864503 -0.120025046 -0.13108589 -0.1765281
-0.12551267 -0.036720656 -0.15803924 0.011169959 0.013476763 -0.026600521 -0.10643042 -0.10297709
-0.05571181 -0.8867149 -0.059093907 0.04578136 0.00026708603 -0.042288378 -0.024216147 0.02996362
0.023432804 -0.33841717 0.024766725 0.015089522 -0.24174365 -0.03996511 -0.037271682 -0.061758958
0.020236041 -0.2441446 -0.10917416 -0.19298215 -0.0698395 0.03500099 -0.032501962 -0.11463892
-0.11581908 0.07579876 -0.044943932 0.05892183 -0.15240492 -0.12576124 -0.06647046 -0.07164948
-0.05015837 -0.053835973 -0.10852845 -0.08527628 0.0012690447 -0.27498507 -0.16289239 -0.06821487
-0.11017013 -0.09974682 -0.017983213 -0.13575412 -0.07269045 -0.07505502 -0.062540725 0.015079516
-0.17200439 -0.09288341 -0.08238352 -0.07598584 -0.12110672 -0.13479425 -0.049988285 -0.06961213
-0.15840667 -0.04757292 -0.20175149 -0.07173695 -0.07642813 -0.17920756 -0.066467874 -0.1280407
0.028907932 -0.20416579 -0.113137804 0.022434084 -0.025287544 -0.12559703 -0.048572376 -0.0574212
-0.20622197 -0.024453608 -0.08343774 0.019102106 -0.16035375 -0.26262286 -0.12753217 -0.03434786
-0.057704046 -0.08753769 0.023939764 -0.2482483 -0.12982437 -0.18388592 -0.04768763 -0.123716705
0.0006580382 -0.11813912 -0.012111543 -0.01167316 -0.06934976 -0.026872082 -0.042440962 -0.082776584
-0.087511085 -0.01796805 -0.012094339 -0.19995822 -0.090138435 -0.10116078 -0.035221428 -0.03591784
-0.06889156 -0.02238752 -0.05628919 -0.105423145 -0.023379225 -0.04286106 -0.17401502 -0.043765187
-0.0800562 -0.061336394 -0.27035177 -0.109651156 -0.18175831 -0.06693612 -0.28096712 -0.35030398
-0.08587559 -0.13045196 -0.20804775 -0.038154133 -0.14759928 -0.04143479 -0.002860323 -0.048948057
0.03361166 -0.074856795 -0.001153612 0.12046551 0.20986481 -0.07242563 -0.007204264 -0.14889666
-0.011333893 -0.13522096 -0.16602677 0.015610616 0.025708865 -0.21061765 -0.0031563658 0.06944005
0.020923808 0.2673333 -0.02097448 0.06564199 0.051295698 0.024896637 -0.02784419 -0.22755684
-0.075352535 0.22225711 -0.10478231 -0.031111253 -0.138363 -0.12652804 0.098089784 -0.18161902
-0.15996532 -0.20040411 -0.113397114 -0.16443838 0.1691606 -0.10712376 0.01964056 0.09467891
0.04049265 -0.04263379 -0.20489861 0.15631488 -0.118471 -0.19699387 -0.2402779 -0.17350586
-0.19160604 -0.023519067 -0.2025283 0.22332609 0.13518396 -0.16209279 -0.13817237 0.09237929
0.104727864 0.247695 -0.05583156 -0.21071292 -0.19240806 -0.035093445 -0.030327413 0.095469944
0.0012374348 0.037449595 0.047054432 -0.18489018 -0.13000485 0.08981099 -0.071541436 -0.10970868
-0.061795905 0.04513126 0.06708303 -0.06307088 -0.06701574 -0.20050573 -0.21294942 0.11430864
0.1627634 -0.13358551 0.15898277 -0.09590848 0.02933206 -0.10890254 -0.07291631 -0.003783405
-0.17498447 0.08990568 0.04127857 -0.07840797 -0.016876865 -0.06620259 -0.13959494 -0.011294377
0.09347028 0.2239667 -0.10022571 -0.15922701 0.045369897 -0.04394891 0.17448604 -0.18491895

fc.weight f4 [1, 150]
00000000: 2326 3cbd 15d6 3dbd cf20 2b3b bd90 edbc
00000010: a89e 553d e913 47bd 5b37 b2bb 50fb ec3d
00000020: 2bab d63c 9812 a83d 0b38 f1bc 52cf c3bc
00000030: 5a38 66bd a248 0fbd 83ba 113d 357f a93d
00000040: aa8d 02bd 75d3 71bd 0067 f93c 5c24 713b
00000050: 3827 283d 5f83 6b3c dfde a83c df86 13bd
00000060: 098d bbbc e088 103e 87f9 8a3d cf2b 3f3c
00000070: e7de 9a3c d4c3 253d b37a 043b 1374 c1bd
00000080: d081 12bc 1d46 283e 66b7 913d 9d5d 89bd
00000090: 9022 f3bd faf9 a9bd 8499 7f3c 645e b83d
000000a0: 03e6 2cbd 8671 bd3a de28 26bc ad1d 27bc
000000b0: 6856 033e 71ae 033c eb36 403d 4812 a93d
000000c0: fe3e 10be 5fd2 c0bc 63de 9abd 97ef 213c
000000d0: 7a47 a1bd 29b3 d6bb 7596 27bd 99ad fa3c
000000e0: b01a 9cbd 4081 403c 1015 cdbc d3e7 b53b
000000f0: 33f2 4e3c c778 bbbd d960 f1bd b24d 52bd
00000100: 23f6 00bd be02 133b cc63 143d 3bf1 b8bc
00000110: 81ed bcbc 0682 7c3d fc29 e73d 31ef 9cbc
00000120: 7f24 c83d 7529 0abe 4e67 b6bc a9a4 5fbb
00000130: 344f 44bd e676 f8bc c297 a9bd edfb ccbc
00000140: 7834 dabd bf92 76b8 a7f1 d93b 3df3 783c
00000150: bdd1 debc 327b bebd b833 be3c e317 4d3d
00000160: 8df7 743d 23dd 05bd bc8a a93d c91e 593b
00000170: 2f16 b0bc 4233 ae3d 49cf 8f3c 1e2d 8cbd
00000180: ed71 a1bd 8f1d 163d 972f c5bb 1dea 5aba
00000190: 65e0 a13d 9b17 793d 1d6d 963b df11 aebc
000001a0: bf3c 493c 6848 d7bd 05a2 3c3d fcca 76bd
000001b0: d77d 553d eca7 86bd 9d02 103d 389d 1ebd
000001c0: e942 46bc b355 213d 052c 273d c1c2 0c3b
000001d0: ff9b 89bd 9134 58bd f259 28bd 0d5c 293c
000001e0: 1468 913d e8f5 a6bd 7c7d b43c a4e6 1cbb
000001f0: 489d 883d c4d3 11be fc7b 1dbd 2e60 653d
00000200: 7c3f 813d 75a9 7a3d 5bb0 4d3d 5309 933c
00000210: 47fd 183c 680b a0bd 1588 47bb 3c48 d43c
00000220: a659 05bc 4d80 32bd 0ff6 88bb 96dc 143d
00000230: 6b4f 1a3a 2d4f ac3d a9ca 473d eb05 cbbd
00000240: 5366 90bd e5fa 0d3d 8228 513d c008 05bb
00000250: c061 233d 38ac a73d
-0.045934808 -0.046346743 0.0026112085 -0.02899968 0.05215326 -0.048602972 -0.005438728 0.115713716
0.026204666 0.082066715 -0.029445669 -0.023902569 -0.056206085 -0.034981377 0.035578262 0.08276216
-0.031873383 -0.05903955 0.030444622 0.0036795354 0.041053027 0.014374583 0.020614086 -0.036017295
-0.0228944 0.14114714 0.06785875 0.01166816 0.018905116 0.04046996 0.0020214736 -0.094459675
-0.0089420825 0.16432996 0.071150586 -0.067073084 -0.11871827 -0.08299632 0.015600566 0.090023786
-0.042211544 0.0014453388 -0.010141579 -0.010199946 0.1282593 0.008037196 0.046927374 0.0825544
-0.1408653 -0.023537813 -0.07561948 0.009883783 -0.07874961 -0.0065521193 -0.04091497 0.030600356
-0.07622278 0.011749566 -0.025034457 0.0055513172 0.012630987 -0.09153896 -0.1178605 -0.051343627
-0.031484734 0.0022432054 0.036227986 -0.022575965 -0.02306247 0.061647438 0.11287305 -0.019157024
0.09772586 -0.13492377 -0.022266056 -0.0034125245 -0.047927096 -0.030330133 -0.08280899 -0.025022471
-0.10654539 -5.878764e-05 0.0066511217 0.015194711 -0.02719962 -0.093008414 0.02321802 0.05007161
0.059806395 -0.032681596 0.082784146 0.0033129922 -0.021494953 0.085058704 0.017554896 -0.06844543
-0.07883058 0.036649283 -0.006017636 -0.00083509256 0.07904128 0.060813528 0.004590644 -0.021248756
0.012282549 -0.10511857 0.04605295 -0.060252175 0.052121963 -0.06574997 0.035158742 -0.038724154
-0.012100914 0.03938837 0.040813465 0.0021478387 -0.06719207 -0.052784506 -0.041101404 0.010336888
0.070999295 -0.08152372 0.022032492 -0.0023941183 0.06670624 -0.14240938 -0.03844832 0.055999927
0.06310937 0.061196763 0.050217014 0.017948782 0.00933773 -0.078146756 -0.0030446101 0.02591335
-0.00813905 -0.04357939 -0.004179723 0.03634318 0.0005886468 0.08413539 0.048777256 -0.09913238
-0.07050767 0.0346631 0.051064022 -0.0020299405 0.039888144 0.08187145

exp_avg f4 [450, 1]
00000000: 215e ee35 d0d9 2b37 ce82 ddb3 eff6 3136
00000010: 6526 5936 0f99 f9b4 653b 4d34 b14e 1436
00000020: e5f2 c435 20d1 2336 4907 dfb4 0c08 0b35
00000030: 5428 7e35 777b ab35 e16a 0734 ae33 7036
00000040: 4e45 1337 08c5 9736 384f bc34 0ec0 1034
00000050: abba 4936 f66f d934 54cb 3ab3 2675 c133
00000060: 3228 2836 a2bd 7735 e415 8336 5ed7 8d34
00000070: 4f93 a334 3d97 1c36 3b67 e934 1f4e 8f35
00000080: de2f 81b4 cad4 1038 602d a035 5996 8b37
00000090: e041 3136 0d89 8c36 15fc 8832 4381 c737
000000a0: 2ce6 9634 51e5 4eb0 2973 8d35 a56a 58b4
000000b0: b949 3638 bcdf 16b4 efaa c536 fb11 1f37
000000c0: 9988 8137 59a0 e135 85d7 c336 4fcf f7b3
000000d0: bcac ff35 9be5 abb3 0481 8135 24cf 7636
000000e0: ec1d a437 149c 4234 da44 5b34 6791 c034
000000f0: a46f 0835 bde7 8536 b750 3c35 1c31 f036
00000100: a9d3 0bb5 9850 9cb2 128b c235 059e 4934
00000110: 34e4 0236 e594 6c36 c093 0238 4080 bbb4
00000120: 262c 0237 56cc 2f37 5931 a5b4 227f 9cb4
00000130: 6eff ff34 e496 e0b2 e127 d135 8b54 3336
00000140: 0e02 c136 6de4 bab1 d0d3 89b3 7008 fb35
00000150: 4b8b d234 cecf 5937 9467 0135 9916 9636
00000160: 065b 0d37 0e39 9934 56a6 0437 bc22 3fb4
00000170: fb58 6cb4 a043 e736 c5c3 ca34 b427 c636
00000180: 0661 1137 f863 4234 4265 4734 2c17 42b3
00000190: e9a9 0437 d832 8536 dece c5b3 225c 99b3
000001a0: 4de4 d0b4 1352 9f37 eb6e b0b5 bc24 8636
000001b0: 4dc3 7736 8472 bf36 77a1 6c35 43b2 8035
000001c0: ae58 6e35 19ff b336 2448 b535 a8f6 9234
000001d0: adb2 cc35 090e 25b5 bf17 9a36 33ed 8f34
000001e0: 03a7 1537 23be 2b37 5b5f 6e35 6fbc a4b3
000001f0: 87a0 0436 8ef5 5136 8dfe 2036 624d b234
00000200: 8fed d2b2 a18d 9836 8897 b736 0b9c bb34
00000210: b887 a234 270b c736 ad7d 18b3 e976 44b3
00000220: 11fd 9eb4 615e d834 0bd8 16b3 4e41 c734
00000230: 9933 f3b4 f51e 5c37 005b 3736 6270 c436
00000240: f4a2 4736 3f9e ceb3 d411 0835 8e49 3134
00000250: 4688 9335 2102 6336 d915 0c35 d752 7d35
00000260: e531 21b4 8a4a 1035 0b98 83b5 99f8 cbb5
00000270: 9b95 2633 46f2 c1b4 fece 2435 ab51 eb33
00000280: 4601 f133 bf65 3035 f92d dc34 e91b 7934
00000290: 9086 96b5 299e 92b5 57a5 3eb4 ef39 0bb3
000002a0: 7c06 be32 c1d8 a8b2 c430 bb35 b048 d633
000002b0: d46a d734 c618 2d34 9f5d a934 1471 83b5
000002c0: f249 1ab5 0598 1333 6de5 3035 30cc 5035
000002d0: eda6 f334 c4a4 abb4 acf4 3a34 c3e6 1fb6
000002e0: cc37 3035 3e7c 0635 5679 f533 879b 2eb6
000002f0: de75 d0b4 1c52 29b5 e969 0eb5 99ec d433
00000300: 26f1 e434 4325 2d34 f203 c334 82cc b62e
00000310: ae2e 9934 1aae 4035 2a2f afb4 2452 8035
00000320: 9f96 f0b3 68ec 0ab3 e1d2 81b4 423b 0333
00000330: cf51 f534 bf99 4934 ba3c c735 1df1 7933
00000340: 8006 1fb5 bf05 9634 2bbe 97b3 c2b8 19b6
00000350: c263 a934 8d4f feb4 f4c2 3234 a2af 5233
00000360: a3e4 4334 e076 3534 f02c 1735 7ea7 8c35
00000370: c33b 3d35 d1b9 3d34 29a3 a9b5 d6a3 7db4
00000380: 342c bf34 9c10 49b2 5044 34b5 580a d934
00000390: 9d2f 2d35 02af 0d35 d5b8 1635 defb ff33
000003a0: c7bc 3934 0add 5e35 e9a2 98b3 8bcf 4135
000003b0: cfc2 a1b3 bc41 5535 5ce6 0735 b0c1 3335
000003c0: 7cb0 2bb4 d1ec 4234 1352 a2b4 637e e234
000003d0: 6311 6434 f2a4 6633 3e9e 2235 a77f c134
000003e0: 6bad bbb2 92ab 0133 b26f 04b5 5b8d b135
000003f0: 1937 2a34 4a3b 8934 0dd9 4b33 c4c6 0934
1.7759777e-06 1.0243108e-05 -1.0314908e-07 2.651879e-06 3.2357868e-06 -4.649123e-07 1.911372e-07 2.2099523e-06
1.467383e-06 2.441062e-06 -4.1542287e-07 5.1793245e-07 9.468106e-07 1.2776426e-06 1.2611737e-07 3.5792868e-06
8.778019e-06 4.523088e-06 3.5075368e-07 1.3480914e-07 3.005999e-06 4.0500862e-07 -4.3491426e-08 9.008572e-08
2.5057348e-06 9.229062e-07 3.9066526e-06 2.6419997e-07 3.0468297e-07 2.3333844e-06 4.3474742e-07 1.0677066e-06
-2.406295e-07 3.453045e-05 1.1934135e-06 1.6640102e-05 2.64134e-06 4.18828e-06 1.5947117e-08 2.378284e-05
2.810715e-07 -7.526824e-10 1.0538835e-06 -2.0155365e-07 4.346084e-05 -1.4051233e-07 5.890957e-06 9.481325e-06
1.5441607e-05 1.6810474e-06 5.8365426e-06 -1.1539543e-07 1.9049253e-06 -8.004573e-08 9.648797e-07 3.6777428e-06
1.9564257e-05 1.8124439e-07 2.0421012e-07 3.586858e-07 5.0826407e-07 3.9906868e-06 7.0152913e-07 7.1582745e-06
-5.208954e-07 -1.819744e-08 1.4494601e-06 1.8777071e-07 1.9504341e-06 3.5253408e-06 3.113202e-05 -3.4924778e-07
7.758883e-06 1.04783885e-05 -3.076955e-07 -2.9149766e-07 4.76833e-07 -2.614565e-08 1.558332e-06 2.672229e-06
5.7520874e-06 -5.4392815e-09 -6.418088e-08 1.8703413e-06 3.9216897e-07 1.2982591e-05 4.820697e-07 4.472979e-06
8.425448e-06 2.8539984e-07 7.906541e-06 -1.7800897e-07 -2.2011584e-07 6.892209e-06 3.7767873e-07 5.905482e-06
8.6652635e-06 1.8104026e-07 1.8570157e-07 -4.519022e-08 7.907373e-06 3.969628e-06 -9.211156e-08 -7.1413766e-08
-3.890913e-07 1.8992496e-05 -1.3145303e-06 3.9977876e-06 3.6919548e-06 5.705575e-06 8.8151813e-07 9.588624e-07
8.8790955e-07 5.364313e-06 1.3506547e-06 2.7374085e-07 1.5251186e-06 -6.1487714e-07 4.592322e-06 2.680841e-07
8.9199775e-06 1.0236664e-05 8.880067e-07 -7.671121e-08 1.9762972e-06 3.1286359e-06 2.3990026e-06 3.3211387e-07
-2.4555247e-08 4.546441e-06 5.4714656e-06 3.4945e-07 3.02736e-07 5.9319605e-06 -3.550456e-08 -4.5742954e-08
-2.9613923e-07 4.0301805e-07 -3.5121086e-08 3.7114154e-07 -4.529982e-07 1.312023e-05 2.7322094e-06 5.8543383e-06
2.9748162e-06 -9.621407e-08 5.068989e-07 1.6511169e-07 1.0992014e-06 3.3826875e-06 5.2185857e-07 9.437039e-07
-1.5012445e-07 5.375265e-07 -9.804511e-07 -1.519703e-06 3.8785952e-08 -3.6125329e-07 6.1395974e-07 1.09578956e-07
1.1222669e-07 6.571317e-07 4.1011643e-07 2.3200086e-07 -1.1215034e-06 -1.0923878e-06 -1.7755279e-07 -3.241615e-08
2.212186e-08 -1.9656342e-08 1.3946778e-06 9.978373e-08 4.0124598e-07 1.6120893e-07 3.154682e-07 -9.793171e-07
-5.7477075e-07 3.4364366e-08 6.589897e-07 7.778317e-07 4.5383732e-07 -3.1971115e-07 1.7411611e-07 -2.3827167e-06
6.5646304e-07 5.0099686e-07 1.14307724e-07 -2.601855e-06 -3.882878e-07 -6.307689e-07 -5.305324e-07 9.915056e-08
4.2643768e-07 1.6125436e-07 3.632445e-07 8.31273e-11 2.8532435e-07 7.1778925e-07 -3.2630606e-07 9.560649e-07
-1.1203269e-07 -3.234564e-08 -2.4181557e-07 3.055471e-08 4.569433e-07 1.8775516e-07 1.4844329e-06 5.819412e-08
-5.9241574e-07 2.7943858e-07 -7.066077e-08 -2.290632e-06 3.1551286e-07 -4.7369068e-07 1.6648465e-07 4.9054172e-08
1.8243968e-07 1.6900185e-07 5.6317276e-07 1.047956e-06 7.049495e-07 1.7669596e-07 -1.2638967e-06 -2.3622064e-07
3.5608684e-07 -1.1703516e-08 -6.7154633e-07 4.0426926e-07 6.451681e-07 5.2781263e-07 5.614832e-07 1.1920177e-07
1.7298144e-07 8.30231e-07 -7.107685e-08 7.220012e-07 -7.532582e-08 7.944434e-07 5.0626636e-07 6.696455e-07
-1.598982e-07 1.8153811e-07 -3.0234568e-07 4.218774e-07 2.124048e-07 5.3701065e-08 6.0579976e-07 3.604193e-07
-2.1848527e-08 3.0191195e-08 -4.933637e-07 1.3228668e-06 1.5852528e-07 2.5561377e-07 4.7462027e-08 1.283143e-07

exp_avg_sq f4 [450, 1]
00000000: eb3c 9a2f b439 1c31 2838 8b2d fe07 ee2f
00000010: dc5b 3b2f 7a25 392d e26e 3e2c 1055 8d30
00000020: 1f5b 8f2f bf3f bc2f 5b55 b22d d987 7e2d
00000030: 9b4b 842d ce0f 8e2f 4de4 862c da16 972f
00000040: 052d 4b30 3470 ca2f a0c6 c82d c5b8 112c
00000050: de45 9430 0787 0c2e 038a a22e d96b 702d
00000060: e5d8 ca2f ab00 7c2d 3114 0230 2185 ed2c
00000070: 75ec f12d d362 6f30 f4bb 352d 06c1 2430
00000080: 106a 022c 6242 8032 93cc 0930 ad05 c931
00000090: 8cbe c22f 7d26 8f2f ba4e 7b2c eff4 1e32
000000a0: ffac e62e 4a9d 9e2b 06e9 002f 2056 362b
000000b0: 8611 0d33 e2d0 372d 5bfc 8d30 8f22 cc30
000000c0: 576b 0332 b11f 0330 f724 2831 36b8 8c2d
000000d0: b682 422f edd7 892a 6c08 742e 9858 2e30
000000e0: d66d c331 3af8 a62c 2516 d32d 1727 8e2d
000000f0: 7433 682e 42b3 962f 9e6e 942e 21df db30
00000100: d3eb 7d2d a70e 352c fe2c 7d2f f697 0e2e
00000110: 21df f82f 39ec 1d30 9f26 a932 c15d 942c
00000120: 1d27 b730 e7c3 fd30 f2dd 012e 886d 642c
00000130: 89f3 a42e 6f41 a62d faf7 0330 54d8 e02f
00000140: e0c7 d530 6849 952c d5f2 762c 10f8 bb2f
00000150: a3f3 d42d 0f25 9931 20ff 8b2e 243e e22f
00000160: da0b 8131 84c9 c22e d23d c730 8692 bf2c
00000170: 1304 472c 6746 bd30 7335 4f2d 5f95 4c31
00000180: ec58 ac30 1378 6e2e e940 302b 4a7c a82c
00000190: 3631 f830 a860 962f 13be 2a2b 92a7 142f
000001a0: 6b7e be2c ba52 0632 35dd f92e d19c 4e2f
000001b0: 18d8 3830 dc3c 5a30 cdc2 8f2e fd5d 9e2e
000001c0: 76dd 022e 8889 2030 009d 382e ca02 8d2d
000001d0: ec32 812e e64c 6f2d 4a98 de30 d59d eb2d
000001e0: 5521 3131 bc47 d430 d938 512f 2e73 682b
000001f0: 629b 232f 2116 c530 6ffa 5f2f 787f 242d
00000200: 97ea 9d2e 4bf2 ec2f 4e71 1c30 069f 3f2e
00000210: e9ff 9b2d 3a4d 3c30 ebb1 b72a 15a3 a82b
00000220: 82f7 8d2c 5c72 842f a91c 8a2c 5722 9d2c
00000230: 6336 a82d 19b4 7031 6932 b02e 29c6 0f30
00000240: 0586 462f 636b 892d be61 832f b7b8 0c2c
00000250: 16f4 9c2e 7ebf 2c30 4637 6e2f 1eb9 ff2f
00000260: 053e ab2d c682 512f 414a 4530 e8d1 af2f
00000270: b3be 3a2a 3c77 e630 77c4 d52e 57c8 a430
00000280: 4f72 ec2d 4187 922e 95e2 2e30 a42e f72e
00000290: 5298 332f d654 0d31 8b2a 1430 d7b1 0b30
000002a0: 5db9 382e 32d0 df29 f788 0030 8fea 2b2c
000002b0: ca2c eb2d 002b c52e 5469 b52e 4f5d a731
000002c0: fd1c 1930 def1 6f2b dc3e f42d 836b 8e2f
000002d0: ef2b 5c2c 017d 1231 3eaf fa2c 3a60 3a32
000002e0: 671b 7630 bb23 b030 3579 3631 92b1 0831
000002f0: f004 b92d 65c6 5031 7965 7d2f a804 6f2b
00000300: 50eb 2e2e 1caa c82b ab15 ba31 0986 3d2a
00000310: 1ea9 fb2f c3c0 f230 469d b331 9d7c e42e
00000320: d9fc 5230 18f3 b42d b23b 6c30 1fff 8329
00000330: 5208 f72e 6da8 752f f06a df30 19be d82b
00000340: 77e0 5b2e 926d ce2c 7263 032e cdd7 6431
00000350: 75a3 5a31 5389 0130 1713 962d f7c9 2f2a
00000360: 017c c02e d775 982d a7d5 9a2e 6ffa 4330
00000370: 612e 9c31 8ca0 f42c 1a71 fe30 34bf 9a31
00000380: 308d 1e2e d523 952a e0a0 8f2f c4f0 7d2e
00000390: 86c2 9a30 e244 202f 5906 1b31 1435 c62b
000003a0: b334 112c d973 7a2e bcfe 332e 9194 1b31
000003b0: c705 a42e 55ea 2230 9934 3830 bee0 c52e
000003c0: 3ee2 d630 a67b 942c 1a80 8b2d 964e e430
000003d0: 0f56 a42d f41f 8430 dfbb d830 8a2c bf2e
000003e0: d680 7629 e135 f32a 67ba 8930 9178 5230
000003f0: a3fd 092c 995d 062e a10f 4d2b 1ee3 2b31
2.8055722e-10 2.2733788e-09 1.5827409e-11 4.3297627e-10 1.7040186e-10 1.0524354e-11 2.7062176e-12 1.0283276e-09
2.6076294e-10 3.4242295e-10 2.0274163e-11 1.4468393e-11 1.5040238e-11 2.584088e-10 3.8338555e-12 2.7482977e-10
7.3914946e-10 3.682331e-10 2.2825575e-11 2.0708307e-12 1.0788275e-09 3.1952243e-11 7.391423e-11 1.36663675e-11
3.68977e-10 1.432469e-11 4.732242e-10 6.7507254e-12 2.7503536e-11 8.708813e-10 1.0330393e-11 5.9937155e-10
1.8532988e-12 1.4931349e-08 5.0131027e-10 5.850515e-09 3.5423786e-10 2.6038896e-10 3.5712947e-12 9.252502e-09
1.04899193e-10 1.1270232e-12 1.1724319e-10 6.477891e-13 3.284506e-08 1.0448727e-11 1.0330824e-09 1.4852776e-09
7.64961e-09 4.770256e-10 2.446823e-09 1.5997963e-11 1.7690635e-10 2.4485917e-13 5.5486657e-11 6.342673e-10
5.687734e-09 4.7455624e-12 2.3997757e-11 1.616089e-11 5.2796392e-11 2.7412211e-10 6.7499104e-11 1.5997764e-09
1.44337485e-11 2.572978e-12 2.30262e-10 3.242203e-11 4.526948e-10 5.745196e-10 1.9691752e-08 4.2168218e-12
1.3326119e-09 1.8463852e-09 2.952833e-11 3.246155e-12 7.501117e-11 1.8901073e-11 4.800992e-10 4.0899073e-10
1.5554598e-09 4.2429844e-12 3.5093501e-12 3.419136e-10 2.4209806e-11 4.457099e-09 6.3663075e-11 4.1153314e-10
3.7557415e-09 8.857895e-11 1.4496726e-09 5.444814e-12 2.8281863e-12 1.3771569e-09 1.1778456e-11 2.9770815e-09
1.253992e-09 5.4221582e-11 6.261784e-13 4.788646e-12 1.8058361e-09 2.735352e-10 6.0659914e-13 1.3520055e-10
5.41416e-12 7.818636e-09 1.1362503e-10 1.8791303e-10 6.72459e-10 7.9394424e-10 6.537491e-11 7.201704e-11
2.9755275e-11 5.8403105e-10 4.19762e-11 1.6031083e-11 5.8752864e-11 1.3602652e-11 1.6195909e-09 2.6786498e-11
2.5775837e-09 1.5445418e-09 1.9028636e-10 8.25828e-13 1.4879967e-10 1.4339926e-09 2.0370704e-10 9.3506244e-12
7.181205e-11 4.310031e-10 5.6913485e-10 4.3569613e-11 1.7735107e-11 6.8503747e-10 3.2630786e-13 1.1982382e-12
4.03494e-12 2.4091917e-10 3.925378e-12 4.466021e-12 1.9123541e-11 3.502697e-09 8.012508e-11 5.23047e-10
1.8055608e-10 1.5622786e-11 2.389821e-10 1.9997734e-12 7.137417e-11 6.284536e-10 2.1665611e-10 4.6515763e-10
1.9467991e-11 1.90549e-10 7.1773704e-10 3.1981462e-10 1.6586281e-13 1.6768591e-09 9.721018e-11 1.198951e-09
2.6880857e-11 6.663337e-11 6.3622824e-10 1.12405446e-10 1.633407e-10 2.0566424e-09 5.3902544e-10 5.082063e-10
4.2001392e-11 9.9393055e-14 4.676077e-10 2.4430768e-12 2.6736297e-11 8.966161e-11 8.249637e-11 4.8709476e-09
5.570227e-10 8.5245515e-13 2.7767504e-11 2.590604e-10 3.1288268e-12 2.1316853e-09 7.124883e-12 1.0848504e-08
8.953322e-10 1.2815841e-09 2.6553384e-09 1.9891542e-09 2.1034258e-11 3.0380758e-09 2.3046266e-10 8.491632e-13
3.977202e-11 1.425807e-12 5.415776e-09 1.6833075e-13 4.57768e-10 1.7662604e-09 5.2274656e-09 1.03903754e-10
7.6756873e-10 2.0571586e-11 8.594113e-10 5.861825e-14 1.12337376e-10 2.2342457e-10 1.6255779e-09 1.5400486e-12
4.99942e-11 5.867037e-12 2.9874277e-11 3.3301035e-09 3.181609e-09 4.7125076e-10 1.7061503e-11 1.5613193e-13
8.753177e-11 1.733273e-11 7.0410615e-11 7.1296474e-10 4.5454702e-09 6.9527214e-12 1.8513078e-09 4.503727e-09
3.605044e-11 2.649258e-13 2.6125857e-10 5.7739383e-11 1.1260262e-09 1.4576387e-10 2.2559077e-09 1.4083478e-12
2.0634993e-12 5.6946312e-11 4.0926137e-11 2.2639919e-09 7.458883e-11 5.926826e-10 6.7013556e-10 8.998445e-11
1.5634851e-09 4.2201407e-12 1.5859359e-11 1.6611519e-09 1.8682859e-11 9.613346e-10 1.5769465e-09 8.693586e-11
5.473472e-14 4.3202857e-13 1.0021041e-09 7.656889e-10 1.9609668e-12 3.0551204e-11 7.285232e-13 2.5012876e-09

exp_avg f4 [450, 150]
00000000: b84a 39b3 742b 8733 9cf0 81b4 7e8d 25b3
00000010: de08 2034 c273 29b4 afd8 7932 db58 f533
00000020: 2a3a 4bb3 74b4 3734 425c 1833 953b 24b3
00000030: ebc4 90b4 7ea8 c333 5a20 2a34 e504 2534
00000040: 6fe5 d2b3 7b0f 67b2 f77c 2a33 c491 3fb1
00000050: d735 24b3 ccbf 8cb0 ae8f acb2 8808 02b4
00000060: 5037 a533 61f2 9f34 8160 6e33 8b91 8332
00000070: 77cc 6d31 2b0d 71b3 ac9c 2eb3 ffff a0b3
00000080: e232 d133 68ef 8434 5075 1332 739e 9233
00000090: 1bfe 58b4 8bfb 77b4 bc05 a8b2 1f1b 20b3
000000a0: 5a35 7c33 b3d9 58b3 42f1 8f33 1f4d 3133
000000b0: 2a1f eeb2 9920 0a33 e5bd 0434 323f 8534
000000c0: 45da 5532 309d 8833 0156 bd33 c17f 04b4
000000d0: 35b2 03b4 e316 1fb3 6dfb 06b4 42f6 ebb3
000000e0: a523 fcb3 a5a9 60b3 606b de31 49f4 cb33
000000f0: 59ed 39b4 bad3 86b4 4e93 6bb4 f840 0534
00000100: 1a67 1233 23c1 4bb3 82f6 f532 115c 3f31
00000110: 07fb 9133 bd02 5433 e390 32b3 0a87 bf32
00000120: d5f4 2334 ee8e 84b4 c1f9 1532 ce92 b9b2
00000130: 305b 45b3 325c aa32 589d deb0 74ba 1d31
00000140: 503b e6b3 fcd4 d3b2 1f55 beb2 572f a7b3
00000150: ab3f f7b3 8e46 05b4 f996 2db4 0a46 9134
00000160: 9e6b eeb3 9f93 2032 5ea8 1e34 a32c abb2
00000170: 7017 ae32 e3eb b433 f7df 0032 b908 bd32
00000180: 1936 7bb4 51f6 07b3 f1ca 20b3 ec3c 85af
00000190: cc4d 9e31 33f2 5e34 563f 46b2 9cd9 2533
000001a0: b212 6cb2 3ea6 8eb3 d6c8 9432 6cf5 98b4
000001b0: 7bc4 c2b2 3690 17b4 d131 9533 46f9 9db3
000001c0: 4789 8532 edc2 1b34 2caa d333 f31e 5bb3
000001d0: 44dd 7eb4 1734 90b3 bd1e a433 aafa d532
000001e0: 6955 4b2e 8cdc dab3 961b 8cb1 df34 e6b1
000001f0: 2e5a 1934 74d2 d6b3 284a 0db4 e113 7d34
00000200: 6cc6 1433 0110 8334 24e6 48b2 ab59 3ab2
00000210: bccc feb2 9bc3 e4b3 879f 8db2 f527 ad33
00000220: 6fd1 0133 1082 0134 63ce a032 8b69 5533
00000230: 56fa 54b3 17f3 b3b1 61bf 6f34 963d 7cb4
00000240: 3b99 8eb4 4975 2bb2 f9f8 1732 0863 2f33
00000250: 789a d632 136e 1134 9942 33b5 c777 34b5
00000260: 99d7 2db5 e3e4 6db5 4143 fb35 a1ed 9bb5
00000270: 9558 9133 4c52 9b35 25f6 b234 54e4 dd35
00000280: df2a 8bb3 ab2e 53b5 2ec9 11b6 0d2a 7ab3
00000290: 1e89 a335 4bfa 2236 3b89 afb5 e7a6 cbb5
000002a0: b26f ea34 d92d 1d32 d3e2 2435 f36e c933
000002b0: 4d93 3534 1aa8 84b5 19ce a2b4 dfde 3236
000002c0: 8c76 8535 3255 8733 75bc ee34 8ce7 b834
000002d0: 3eb0 5db3 8f56 c0b5 4a0d 5034 fcd1 1936
000002e0: e073 6035 d4ef 73b5 89d3 01b6 d8a5 26b6
000002f0: ca9a 8234 4925 b635 a1bc e4b4 5782 15b4
00000300: 2783 8eb4 2592 ec33 58da 9935 c55d ae33
00000310: 89d3 bb35 ea4d f935 825e 97b5 8202 91b4
00000320: 1913 bdb4 ae82 3cb4 faf7 bab5 8f63 5db4
00000330: 765f 72b5 ca1b 3834 6415 bab5 8d1a 11b4
00000340: 5ad9 05b5 f63b cb33 f3ad d1b4 5e8a 36b6
00000350: 633a 14b6 e292 8cb4 926b 05b3 d910 0bb4
00000360: 4b1e 0c35 b0a7 60b4 b3b9 32b4 8e17 9735
00000370: ef4f 9735 8040 a933 3f9c dd35 56fa 13b6
00000380: 5cf0 61b4 55b1 0bb4 f7c8 63b5 534b 85b4
00000390: 2d62 6ab5 07e9 4cb5 a0c3 b9b5 3bd8 bcb2
000003a0: 1a19 99b2 85c7 0e34 b676 58b5 9005 c1b5
000003b0: ee1a 56b4 b4aa 0936 e3ba 8e34 3d88 b4b4
000003c0: 675c e635 024c 5632 a67e dfb3 3e1f a935
000003d0: bae6 b734 26a0 19b5 f2bd d2b5 b198 5e34
000003e0: bf79 27b4 81cb 02b3 d122 5235 64f7 d935
000003f0: 7473 1e32 595c 42b3 fe65 bd32 49f3 aeb5
-4.3141625e-08 6.2943315e-08 -2.420319e-07 -3.8545743e-08 1.4904387e-07 -1.5781464e-07 1.4542976e-08 1.1424864e-07
-4.731752e-08 1.7108852e-07 3.5474166e-08 -3.8238415e-08 -2.6965367e-07 9.111044e-08 1.5844253e-07 1.5368603e-07
-9.820621e-08 -1.34494895e-08 3.9694864e-08 -2.7877016e-09 -3.8233193e-08 -1.0240853e-09 -2.0088773e-08 -1.2110297e-07
7.6934725e-08 2.9792412e-07 5.5501463e-08 1.5316592e-08 3.4604264e-09 -5.612416e-08 -4.0655024e-08 -7.497146e-08
9.7415764e-08 2.4761107e-07 8.5832e-09 6.8274765e-08 -2.020901e-07 -2.3095178e-07 -1.9560382e-08 -3.727757e-08
5.8721845e-08 -5.0489415e-08 6.702841e-08 4.1281165e-08 -2.7721018e-08 3.2160276e-08 1.2362541e-07 2.481916e-07
1.24478605e-08 6.361586e-08 8.816642e-08 -1.2339935e-07 -1.2265157e-07 -3.7040888e-08 -1.257119e-07 -1.0987834e-07
-1.1741148e-07 -5.2308355e-08 6.4732575e-09 9.497359e-08 -1.7315814e-07 -2.5113496e-07 -2.193967e-07 1.2410226e-07
3.4087044e-08 -4.7440277e-08 2.8633853e-08 2.7846492e-09 6.79775e-08 4.9362587e-08 -4.157563e-08 2.2296735e-08
1.5269627e-07 -2.469091e-07 8.729729e-09 -2.1603594e-08 -4.595057e-08 1.983253e-08 -1.6197346e-09 2.2952493e-09
-1.07209985e-07 -2.4660487e-08 -2.215762e-08 -7.7851546e-08 -1.1513415e-07 -1.2412258e-07 -1.6166804e-07 2.7059315e-07
-1.1102314e-07 9.346791e-09 1.4776148e-07 -1.9927318e-08 2.0266924e-08 8.424811e-08 7.501504e-09 2.2006462e-08
-2.3395877e-07 -3.165616e-08 -3.7437477e-08 -2.4235847e-10 4.6072497e-09 2.0763473e-07 -1.1539518e-08 3.861497e-08
-1.3741259e-08 -6.6426296e-08 1.7320797e-08 -2.8490774e-07 -2.2673921e-08 -1.4115435e-07 6.947415e-08 -7.356225e-08
1.5545664e-08 1.4506413e-07 9.856407e-08 -5.101806e-08 -2.373609e-07 -6.7149976e-08 7.6424364e-08 2.4910452e-08
4.6232716e-11 -1.0191533e-07 -4.0776724e-09 -6.6998918e-09 1.4282043e-07 -1.0003433e-07 -1.3158626e-07 2.3569693e-07
3.46394e-08 2.4412296e-07 -1.169386e-08 -1.0847013e-08 -2.9662594e-08 -1.0652658e-07 -1.6487105e-08 8.0632084e-08
3.022563e-08 1.2061378e-07 1.8720305e-08 4.9688918e-08 -4.9587776e-08 -5.2372218e-09 2.2328233e-07 -2.3491734e-07
-2.656105e-07 -9.980178e-09 8.845967e-09 4.083543e-08 2.4983123e-08 1.3544222e-07 -6.677961e-07 -6.7229524e-07
-6.476126e-07 -8.8622454e-07 1.8720531e-06 -1.1617559e-06 6.7682016e-08 1.1572351e-06 3.3334177e-07 1.6532235e-06
-6.48049e-08 -7.8671536e-07 -2.1723786e-06 -5.8245906e-08 1.2184353e-06 2.428557e-06 -1.3078455e-06 -1.5173254e-06
4.3667166e-07 9.149027e-09 6.1424834e-07 9.3799734e-08 1.6910526e-07 -9.88369e-07 -3.0324807e-07 2.6653795e-06
9.943774e-07 6.301924e-08 4.4468075e-07 3.4441143e-07 -5.1615864e-08 -1.4330307e-06 1.9376344e-07 2.2921004e-06
8.3615123e-07 -9.087355e-07 -1.9345628e-06 -2.4832461e-06 2.432701e-07 1.3570908e-06 -4.2605555e-07 -1.3924124e-07
-2.6544987e-07 1.101619e-07 1.1462935e-06 8.119563e-08 1.399415e-06 1.8574622e-06 -1.1277882e-06 -2.701018e-07
-3.521789e-07 -1.7556405e-07 -1.3930251e-06 -2.0618448e-07 -9.029094e-07 1.7146445e-07 -1.3864305e-06 -1.3513836e-07
-4.986265e-07 9.463831e-08 -3.9055848e-07 -2.7200654e-06 -2.2087704e-06 -2.6183903e-07 -3.106431e-08 -1.2951513e-07
5.2198146e-07 -2.092263e-07 -1.6645099e-07 1.1257232e-06 1.127364e-06 7.881408e-08 1.6511257e-06 -2.2050422e-06
-2.10422e-07 -1.3009897e-07 -8.485653e-07 -2.4827986e-07 -8.731466e-07 -7.633502e-07 -1.3840508e-06 -2.198441e-08
-1.7822959e-08 1.3297365e-07 -8.063902e-07 -1.438124e-06 -1.99401e-07 2.0513953e-06 2.658554e-07 -3.362674e-07
1.7163228e-06 1.2473722e-08 -1.0407284e-07 1.2600574e-06 3.4254282e-07 -5.722999e-07 -1.5701501e-06 2.073091e-07
-1.5597378e-07 -3.045307e-08 7.828176e-07 1.623976e-06 9.223061e-09 -4.5253135e-08 2.2048877e-08 -1.3034816e-06
